program(1.0)
[buildInfo = dict<tensor<string, []>, tensor<string, []>>({{"coremlc-component-MIL", "3500.14.1"}, {"coremlc-version", "3500.32.1"}, {"coremltools-component-torch", "2.8.0"}, {"coremltools-source-dialect", "TorchScript"}, {"coremltools-version", "9.0"}})]
{
    func main<ios15>(tensor<fp32, [1, 3, 320, 320]> image) {
            tensor<fp32, []> image__scaled___y_0 = const()[name = tensor<string, []>("image__scaled___y_0"), val = tensor<fp32, []>(0x1.010102p-8)];
            tensor<fp32, [1, 3, 320, 320]> image__scaled__ = mul(x = image, y = image__scaled___y_0)[name = tensor<string, []>("image__scaled__")];
            tensor<int32, []> var_3 = const()[name = tensor<string, []>("op_3"), val = tensor<int32, []>(-1)];
            tensor<int32, []> var_18 = const()[name = tensor<string, []>("op_18"), val = tensor<int32, []>(1)];
            tensor<string, []> input_1_pad_type_0 = const()[name = tensor<string, []>("input_1_pad_type_0"), val = tensor<string, []>("custom")];
            tensor<int32, [4]> input_1_pad_0 = const()[name = tensor<string, []>("input_1_pad_0"), val = tensor<int32, [4]>([1, 1, 1, 1])];
            tensor<int32, [2]> input_1_strides_0 = const()[name = tensor<string, []>("input_1_strides_0"), val = tensor<int32, [2]>([2, 2])];
            tensor<int32, [2]> input_1_dilations_0 = const()[name = tensor<string, []>("input_1_dilations_0"), val = tensor<int32, [2]>([1, 1])];
            tensor<int32, []> input_1_groups_0 = const()[name = tensor<string, []>("input_1_groups_0"), val = tensor<int32, []>(1)];
            tensor<string, []> image_to_fp16_dtype_0 = const()[name = tensor<string, []>("image_to_fp16_dtype_0"), val = tensor<string, []>("fp16")];
            tensor<fp16, [16, 3, 3, 3]> model_model_0_conv_weight_to_fp16 = const()[name = tensor<string, []>("model_model_0_conv_weight_to_fp16"), val = tensor<fp16, [16, 3, 3, 3]>(BLOBFILE(path = tensor<string, []>("@model_path/weights/weight.bin"), offset = tensor<uint64, []>(64)))];
            tensor<fp16, [16]> model_model_0_conv_bias_to_fp16 = const()[name = tensor<string, []>("model_model_0_conv_bias_to_fp16"), val = tensor<fp16, [16]>(BLOBFILE(path = tensor<string, []>("@model_path/weights/weight.bin"), offset = tensor<uint64, []>(1024)))];
            tensor<fp16, [1, 3, 320, 320]> image_to_fp16 = cast(dtype = image_to_fp16_dtype_0, x = image__scaled__)[name = tensor<string, []>("cast_12")];
            tensor<fp16, [1, 16, 160, 160]> input_1_cast_fp16 = conv(bias = model_model_0_conv_bias_to_fp16, dilations = input_1_dilations_0, groups = input_1_groups_0, pad = input_1_pad_0, pad_type = input_1_pad_type_0, strides = input_1_strides_0, weight = model_model_0_conv_weight_to_fp16, x = image_to_fp16)[name = tensor<string, []>("input_1_cast_fp16")];
            tensor<fp16, [1, 16, 160, 160]> input_3_cast_fp16 = silu(x = input_1_cast_fp16)[name = tensor<string, []>("input_3_cast_fp16")];
            tensor<string, []> input_5_pad_type_0 = const()[name = tensor<string, []>("input_5_pad_type_0"), val = tensor<string, []>("custom")];
            tensor<int32, [4]> input_5_pad_0 = const()[name = tensor<string, []>("input_5_pad_0"), val = tensor<int32, [4]>([1, 1, 1, 1])];
            tensor<int32, [2]> input_5_strides_0 = const()[name = tensor<string, []>("input_5_strides_0"), val = tensor<int32, [2]>([2, 2])];
            tensor<int32, [2]> input_5_dilations_0 = const()[name = tensor<string, []>("input_5_dilations_0"), val = tensor<int32, [2]>([1, 1])];
            tensor<int32, []> input_5_groups_0 = const()[name = tensor<string, []>("input_5_groups_0"), val = tensor<int32, []>(1)];
            tensor<fp16, [32, 16, 3, 3]> model_model_1_conv_weight_to_fp16 = const()[name = tensor<string, []>("model_model_1_conv_weight_to_fp16"), val = tensor<fp16, [32, 16, 3, 3]>(BLOBFILE(path = tensor<string, []>("@model_path/weights/weight.bin"), offset = tensor<uint64, []>(1152)))];
            tensor<fp16, [32]> model_model_1_conv_bias_to_fp16 = const()[name = tensor<string, []>("model_model_1_conv_bias_to_fp16"), val = tensor<fp16, [32]>(BLOBFILE(path = tensor<string, []>("@model_path/weights/weight.bin"), offset = tensor<uint64, []>(10432)))];
            tensor<fp16, [1, 32, 80, 80]> input_5_cast_fp16 = conv(bias = model_model_1_conv_bias_to_fp16, dilations = input_5_dilations_0, groups = input_5_groups_0, pad = input_5_pad_0, pad_type = input_5_pad_type_0, strides = input_5_strides_0, weight = model_model_1_conv_weight_to_fp16, x = input_3_cast_fp16)[name = tensor<string, []>("input_5_cast_fp16")];
            tensor<fp16, [1, 32, 80, 80]> input_7_cast_fp16 = silu(x = input_5_cast_fp16)[name = tensor<string, []>("input_7_cast_fp16")];
            tensor<string, []> input_9_pad_type_0 = const()[name = tensor<string, []>("input_9_pad_type_0"), val = tensor<string, []>("valid")];
            tensor<int32, [2]> input_9_strides_0 = const()[name = tensor<string, []>("input_9_strides_0"), val = tensor<int32, [2]>([1, 1])];
            tensor<int32, [4]> input_9_pad_0 = const()[name = tensor<string, []>("input_9_pad_0"), val = tensor<int32, [4]>([0, 0, 0, 0])];
            tensor<int32, [2]> input_9_dilations_0 = const()[name = tensor<string, []>("input_9_dilations_0"), val = tensor<int32, [2]>([1, 1])];
            tensor<int32, []> input_9_groups_0 = const()[name = tensor<string, []>("input_9_groups_0"), val = tensor<int32, []>(1)];
            tensor<fp16, [32, 32, 1, 1]> model_model_2_cv1_conv_weight_to_fp16 = const()[name = tensor<string, []>("model_model_2_cv1_conv_weight_to_fp16"), val = tensor<fp16, [32, 32, 1, 1]>(BLOBFILE(path = tensor<string, []>("@model_path/weights/weight.bin"), offset = tensor<uint64, []>(10560)))];
            tensor<fp16, [32]> model_model_2_cv1_conv_bias_to_fp16 = const()[name = tensor<string, []>("model_model_2_cv1_conv_bias_to_fp16"), val = tensor<fp16, [32]>(BLOBFILE(path = tensor<string, []>("@model_path/weights/weight.bin"), offset = tensor<uint64, []>(12672)))];
            tensor<fp16, [1, 32, 80, 80]> input_9_cast_fp16 = conv(bias = model_model_2_cv1_conv_bias_to_fp16, dilations = input_9_dilations_0, groups = input_9_groups_0, pad = input_9_pad_0, pad_type = input_9_pad_type_0, strides = input_9_strides_0, weight = model_model_2_cv1_conv_weight_to_fp16, x = input_7_cast_fp16)[name = tensor<string, []>("input_9_cast_fp16")];
            tensor<fp16, [1, 32, 80, 80]> var_84_cast_fp16 = silu(x = input_9_cast_fp16)[name = tensor<string, []>("op_84_cast_fp16")];
            tensor<int32, [2]> var_85 = const()[name = tensor<string, []>("op_85"), val = tensor<int32, [2]>([16, 16])];
            tensor<int32, []> var_86_axis_0 = const()[name = tensor<string, []>("op_86_axis_0"), val = tensor<int32, []>(1)];
            tensor<fp16, [1, 16, 80, 80]> var_86_cast_fp16_0, tensor<fp16, [1, 16, 80, 80]> var_86_cast_fp16_1 = split(axis = var_86_axis_0, split_sizes = var_85, x = var_84_cast_fp16)[name = tensor<string, []>("op_86_cast_fp16")];
            tensor<string, []> input_13_pad_type_0 = const()[name = tensor<string, []>("input_13_pad_type_0"), val = tensor<string, []>("custom")];
            tensor<int32, [4]> input_13_pad_0 = const()[name = tensor<string, []>("input_13_pad_0"), val = tensor<int32, [4]>([1, 1, 1, 1])];
            tensor<int32, [2]> input_13_strides_0 = const()[name = tensor<string, []>("input_13_strides_0"), val = tensor<int32, [2]>([1, 1])];
            tensor<int32, [2]> input_13_dilations_0 = const()[name = tensor<string, []>("input_13_dilations_0"), val = tensor<int32, [2]>([1, 1])];
            tensor<int32, []> input_13_groups_0 = const()[name = tensor<string, []>("input_13_groups_0"), val = tensor<int32, []>(1)];
            tensor<fp16, [16, 16, 3, 3]> model_model_2_m_0_cv1_conv_weight_to_fp16 = const()[name = tensor<string, []>("model_model_2_m_0_cv1_conv_weight_to_fp16"), val = tensor<fp16, [16, 16, 3, 3]>(BLOBFILE(path = tensor<string, []>("@model_path/weights/weight.bin"), offset = tensor<uint64, []>(12800)))];
            tensor<fp16, [16]> model_model_2_m_0_cv1_conv_bias_to_fp16 = const()[name = tensor<string, []>("model_model_2_m_0_cv1_conv_bias_to_fp16"), val = tensor<fp16, [16]>(BLOBFILE(path = tensor<string, []>("@model_path/weights/weight.bin"), offset = tensor<uint64, []>(17472)))];
            tensor<fp16, [1, 16, 80, 80]> input_13_cast_fp16 = conv(bias = model_model_2_m_0_cv1_conv_bias_to_fp16, dilations = input_13_dilations_0, groups = input_13_groups_0, pad = input_13_pad_0, pad_type = input_13_pad_type_0, strides = input_13_strides_0, weight = model_model_2_m_0_cv1_conv_weight_to_fp16, x = var_86_cast_fp16_1)[name = tensor<string, []>("input_13_cast_fp16")];
            tensor<fp16, [1, 16, 80, 80]> input_15_cast_fp16 = silu(x = input_13_cast_fp16)[name = tensor<string, []>("input_15_cast_fp16")];
            tensor<string, []> input_17_pad_type_0 = const()[name = tensor<string, []>("input_17_pad_type_0"), val = tensor<string, []>("custom")];
            tensor<int32, [4]> input_17_pad_0 = const()[name = tensor<string, []>("input_17_pad_0"), val = tensor<int32, [4]>([1, 1, 1, 1])];
            tensor<int32, [2]> input_17_strides_0 = const()[name = tensor<string, []>("input_17_strides_0"), val = tensor<int32, [2]>([1, 1])];
            tensor<int32, [2]> input_17_dilations_0 = const()[name = tensor<string, []>("input_17_dilations_0"), val = tensor<int32, [2]>([1, 1])];
            tensor<int32, []> input_17_groups_0 = const()[name = tensor<string, []>("input_17_groups_0"), val = tensor<int32, []>(1)];
            tensor<fp16, [16, 16, 3, 3]> model_model_2_m_0_cv2_conv_weight_to_fp16 = const()[name = tensor<string, []>("model_model_2_m_0_cv2_conv_weight_to_fp16"), val = tensor<fp16, [16, 16, 3, 3]>(BLOBFILE(path = tensor<string, []>("@model_path/weights/weight.bin"), offset = tensor<uint64, []>(17600)))];
            tensor<fp16, [16]> model_model_2_m_0_cv2_conv_bias_to_fp16 = const()[name = tensor<string, []>("model_model_2_m_0_cv2_conv_bias_to_fp16"), val = tensor<fp16, [16]>(BLOBFILE(path = tensor<string, []>("@model_path/weights/weight.bin"), offset = tensor<uint64, []>(22272)))];
            tensor<fp16, [1, 16, 80, 80]> input_17_cast_fp16 = conv(bias = model_model_2_m_0_cv2_conv_bias_to_fp16, dilations = input_17_dilations_0, groups = input_17_groups_0, pad = input_17_pad_0, pad_type = input_17_pad_type_0, strides = input_17_strides_0, weight = model_model_2_m_0_cv2_conv_weight_to_fp16, x = input_15_cast_fp16)[name = tensor<string, []>("input_17_cast_fp16")];
            tensor<fp16, [1, 16, 80, 80]> var_108_cast_fp16 = silu(x = input_17_cast_fp16)[name = tensor<string, []>("op_108_cast_fp16")];
            tensor<fp16, [1, 16, 80, 80]> var_109_cast_fp16 = add(x = var_86_cast_fp16_1, y = var_108_cast_fp16)[name = tensor<string, []>("op_109_cast_fp16")];
            tensor<bool, []> input_19_interleave_0 = const()[name = tensor<string, []>("input_19_interleave_0"), val = tensor<bool, []>(false)];
            tensor<fp16, [1, 48, 80, 80]> input_19_cast_fp16 = concat(axis = var_18, interleave = input_19_interleave_0, values = (var_86_cast_fp16_0, var_86_cast_fp16_1, var_109_cast_fp16))[name = tensor<string, []>("input_19_cast_fp16")];
            tensor<string, []> input_21_pad_type_0 = const()[name = tensor<string, []>("input_21_pad_type_0"), val = tensor<string, []>("valid")];
            tensor<int32, [2]> input_21_strides_0 = const()[name = tensor<string, []>("input_21_strides_0"), val = tensor<int32, [2]>([1, 1])];
            tensor<int32, [4]> input_21_pad_0 = const()[name = tensor<string, []>("input_21_pad_0"), val = tensor<int32, [4]>([0, 0, 0, 0])];
            tensor<int32, [2]> input_21_dilations_0 = const()[name = tensor<string, []>("input_21_dilations_0"), val = tensor<int32, [2]>([1, 1])];
            tensor<int32, []> input_21_groups_0 = const()[name = tensor<string, []>("input_21_groups_0"), val = tensor<int32, []>(1)];
            tensor<fp16, [32, 48, 1, 1]> model_model_2_cv2_conv_weight_to_fp16 = const()[name = tensor<string, []>("model_model_2_cv2_conv_weight_to_fp16"), val = tensor<fp16, [32, 48, 1, 1]>(BLOBFILE(path = tensor<string, []>("@model_path/weights/weight.bin"), offset = tensor<uint64, []>(22400)))];
            tensor<fp16, [32]> model_model_2_cv2_conv_bias_to_fp16 = const()[name = tensor<string, []>("model_model_2_cv2_conv_bias_to_fp16"), val = tensor<fp16, [32]>(BLOBFILE(path = tensor<string, []>("@model_path/weights/weight.bin"), offset = tensor<uint64, []>(25536)))];
            tensor<fp16, [1, 32, 80, 80]> input_21_cast_fp16 = conv(bias = model_model_2_cv2_conv_bias_to_fp16, dilations = input_21_dilations_0, groups = input_21_groups_0, pad = input_21_pad_0, pad_type = input_21_pad_type_0, strides = input_21_strides_0, weight = model_model_2_cv2_conv_weight_to_fp16, x = input_19_cast_fp16)[name = tensor<string, []>("input_21_cast_fp16")];
            tensor<fp16, [1, 32, 80, 80]> input_23_cast_fp16 = silu(x = input_21_cast_fp16)[name = tensor<string, []>("input_23_cast_fp16")];
            tensor<string, []> input_25_pad_type_0 = const()[name = tensor<string, []>("input_25_pad_type_0"), val = tensor<string, []>("custom")];
            tensor<int32, [4]> input_25_pad_0 = const()[name = tensor<string, []>("input_25_pad_0"), val = tensor<int32, [4]>([1, 1, 1, 1])];
            tensor<int32, [2]> input_25_strides_0 = const()[name = tensor<string, []>("input_25_strides_0"), val = tensor<int32, [2]>([2, 2])];
            tensor<int32, [2]> input_25_dilations_0 = const()[name = tensor<string, []>("input_25_dilations_0"), val = tensor<int32, [2]>([1, 1])];
            tensor<int32, []> input_25_groups_0 = const()[name = tensor<string, []>("input_25_groups_0"), val = tensor<int32, []>(1)];
            tensor<fp16, [64, 32, 3, 3]> model_model_3_conv_weight_to_fp16 = const()[name = tensor<string, []>("model_model_3_conv_weight_to_fp16"), val = tensor<fp16, [64, 32, 3, 3]>(BLOBFILE(path = tensor<string, []>("@model_path/weights/weight.bin"), offset = tensor<uint64, []>(25664)))];
            tensor<fp16, [64]> model_model_3_conv_bias_to_fp16 = const()[name = tensor<string, []>("model_model_3_conv_bias_to_fp16"), val = tensor<fp16, [64]>(BLOBFILE(path = tensor<string, []>("@model_path/weights/weight.bin"), offset = tensor<uint64, []>(62592)))];
            tensor<fp16, [1, 64, 40, 40]> input_25_cast_fp16 = conv(bias = model_model_3_conv_bias_to_fp16, dilations = input_25_dilations_0, groups = input_25_groups_0, pad = input_25_pad_0, pad_type = input_25_pad_type_0, strides = input_25_strides_0, weight = model_model_3_conv_weight_to_fp16, x = input_23_cast_fp16)[name = tensor<string, []>("input_25_cast_fp16")];
            tensor<fp16, [1, 64, 40, 40]> input_27_cast_fp16 = silu(x = input_25_cast_fp16)[name = tensor<string, []>("input_27_cast_fp16")];
            tensor<string, []> input_29_pad_type_0 = const()[name = tensor<string, []>("input_29_pad_type_0"), val = tensor<string, []>("valid")];
            tensor<int32, [2]> input_29_strides_0 = const()[name = tensor<string, []>("input_29_strides_0"), val = tensor<int32, [2]>([1, 1])];
            tensor<int32, [4]> input_29_pad_0 = const()[name = tensor<string, []>("input_29_pad_0"), val = tensor<int32, [4]>([0, 0, 0, 0])];
            tensor<int32, [2]> input_29_dilations_0 = const()[name = tensor<string, []>("input_29_dilations_0"), val = tensor<int32, [2]>([1, 1])];
            tensor<int32, []> input_29_groups_0 = const()[name = tensor<string, []>("input_29_groups_0"), val = tensor<int32, []>(1)];
            tensor<fp16, [64, 64, 1, 1]> model_model_4_cv1_conv_weight_to_fp16 = const()[name = tensor<string, []>("model_model_4_cv1_conv_weight_to_fp16"), val = tensor<fp16, [64, 64, 1, 1]>(BLOBFILE(path = tensor<string, []>("@model_path/weights/weight.bin"), offset = tensor<uint64, []>(62784)))];
            tensor<fp16, [64]> model_model_4_cv1_conv_bias_to_fp16 = const()[name = tensor<string, []>("model_model_4_cv1_conv_bias_to_fp16"), val = tensor<fp16, [64]>(BLOBFILE(path = tensor<string, []>("@model_path/weights/weight.bin"), offset = tensor<uint64, []>(71040)))];
            tensor<fp16, [1, 64, 40, 40]> input_29_cast_fp16 = conv(bias = model_model_4_cv1_conv_bias_to_fp16, dilations = input_29_dilations_0, groups = input_29_groups_0, pad = input_29_pad_0, pad_type = input_29_pad_type_0, strides = input_29_strides_0, weight = model_model_4_cv1_conv_weight_to_fp16, x = input_27_cast_fp16)[name = tensor<string, []>("input_29_cast_fp16")];
            tensor<fp16, [1, 64, 40, 40]> var_144_cast_fp16 = silu(x = input_29_cast_fp16)[name = tensor<string, []>("op_144_cast_fp16")];
            tensor<int32, [2]> var_145 = const()[name = tensor<string, []>("op_145"), val = tensor<int32, [2]>([32, 32])];
            tensor<int32, []> var_146_axis_0 = const()[name = tensor<string, []>("op_146_axis_0"), val = tensor<int32, []>(1)];
            tensor<fp16, [1, 32, 40, 40]> var_146_cast_fp16_0, tensor<fp16, [1, 32, 40, 40]> var_146_cast_fp16_1 = split(axis = var_146_axis_0, split_sizes = var_145, x = var_144_cast_fp16)[name = tensor<string, []>("op_146_cast_fp16")];
            tensor<string, []> input_33_pad_type_0 = const()[name = tensor<string, []>("input_33_pad_type_0"), val = tensor<string, []>("custom")];
            tensor<int32, [4]> input_33_pad_0 = const()[name = tensor<string, []>("input_33_pad_0"), val = tensor<int32, [4]>([1, 1, 1, 1])];
            tensor<int32, [2]> input_33_strides_0 = const()[name = tensor<string, []>("input_33_strides_0"), val = tensor<int32, [2]>([1, 1])];
            tensor<int32, [2]> input_33_dilations_0 = const()[name = tensor<string, []>("input_33_dilations_0"), val = tensor<int32, [2]>([1, 1])];
            tensor<int32, []> input_33_groups_0 = const()[name = tensor<string, []>("input_33_groups_0"), val = tensor<int32, []>(1)];
            tensor<fp16, [32, 32, 3, 3]> model_model_4_m_0_cv1_conv_weight_to_fp16 = const()[name = tensor<string, []>("model_model_4_m_0_cv1_conv_weight_to_fp16"), val = tensor<fp16, [32, 32, 3, 3]>(BLOBFILE(path = tensor<string, []>("@model_path/weights/weight.bin"), offset = tensor<uint64, []>(71232)))];
            tensor<fp16, [32]> model_model_4_m_0_cv1_conv_bias_to_fp16 = const()[name = tensor<string, []>("model_model_4_m_0_cv1_conv_bias_to_fp16"), val = tensor<fp16, [32]>(BLOBFILE(path = tensor<string, []>("@model_path/weights/weight.bin"), offset = tensor<uint64, []>(89728)))];
            tensor<fp16, [1, 32, 40, 40]> input_33_cast_fp16 = conv(bias = model_model_4_m_0_cv1_conv_bias_to_fp16, dilations = input_33_dilations_0, groups = input_33_groups_0, pad = input_33_pad_0, pad_type = input_33_pad_type_0, strides = input_33_strides_0, weight = model_model_4_m_0_cv1_conv_weight_to_fp16, x = var_146_cast_fp16_1)[name = tensor<string, []>("input_33_cast_fp16")];
            tensor<fp16, [1, 32, 40, 40]> input_35_cast_fp16 = silu(x = input_33_cast_fp16)[name = tensor<string, []>("input_35_cast_fp16")];
            tensor<string, []> input_37_pad_type_0 = const()[name = tensor<string, []>("input_37_pad_type_0"), val = tensor<string, []>("custom")];
            tensor<int32, [4]> input_37_pad_0 = const()[name = tensor<string, []>("input_37_pad_0"), val = tensor<int32, [4]>([1, 1, 1, 1])];
            tensor<int32, [2]> input_37_strides_0 = const()[name = tensor<string, []>("input_37_strides_0"), val = tensor<int32, [2]>([1, 1])];
            tensor<int32, [2]> input_37_dilations_0 = const()[name = tensor<string, []>("input_37_dilations_0"), val = tensor<int32, [2]>([1, 1])];
            tensor<int32, []> input_37_groups_0 = const()[name = tensor<string, []>("input_37_groups_0"), val = tensor<int32, []>(1)];
            tensor<fp16, [32, 32, 3, 3]> model_model_4_m_0_cv2_conv_weight_to_fp16 = const()[name = tensor<string, []>("model_model_4_m_0_cv2_conv_weight_to_fp16"), val = tensor<fp16, [32, 32, 3, 3]>(BLOBFILE(path = tensor<string, []>("@model_path/weights/weight.bin"), offset = tensor<uint64, []>(89856)))];
            tensor<fp16, [32]> model_model_4_m_0_cv2_conv_bias_to_fp16 = const()[name = tensor<string, []>("model_model_4_m_0_cv2_conv_bias_to_fp16"), val = tensor<fp16, [32]>(BLOBFILE(path = tensor<string, []>("@model_path/weights/weight.bin"), offset = tensor<uint64, []>(108352)))];
            tensor<fp16, [1, 32, 40, 40]> input_37_cast_fp16 = conv(bias = model_model_4_m_0_cv2_conv_bias_to_fp16, dilations = input_37_dilations_0, groups = input_37_groups_0, pad = input_37_pad_0, pad_type = input_37_pad_type_0, strides = input_37_strides_0, weight = model_model_4_m_0_cv2_conv_weight_to_fp16, x = input_35_cast_fp16)[name = tensor<string, []>("input_37_cast_fp16")];
            tensor<fp16, [1, 32, 40, 40]> var_168_cast_fp16 = silu(x = input_37_cast_fp16)[name = tensor<string, []>("op_168_cast_fp16")];
            tensor<fp16, [1, 32, 40, 40]> input_39_cast_fp16 = add(x = var_146_cast_fp16_1, y = var_168_cast_fp16)[name = tensor<string, []>("input_39_cast_fp16")];
            tensor<string, []> input_41_pad_type_0 = const()[name = tensor<string, []>("input_41_pad_type_0"), val = tensor<string, []>("custom")];
            tensor<int32, [4]> input_41_pad_0 = const()[name = tensor<string, []>("input_41_pad_0"), val = tensor<int32, [4]>([1, 1, 1, 1])];
            tensor<int32, [2]> input_41_strides_0 = const()[name = tensor<string, []>("input_41_strides_0"), val = tensor<int32, [2]>([1, 1])];
            tensor<int32, [2]> input_41_dilations_0 = const()[name = tensor<string, []>("input_41_dilations_0"), val = tensor<int32, [2]>([1, 1])];
            tensor<int32, []> input_41_groups_0 = const()[name = tensor<string, []>("input_41_groups_0"), val = tensor<int32, []>(1)];
            tensor<fp16, [32, 32, 3, 3]> model_model_4_m_1_cv1_conv_weight_to_fp16 = const()[name = tensor<string, []>("model_model_4_m_1_cv1_conv_weight_to_fp16"), val = tensor<fp16, [32, 32, 3, 3]>(BLOBFILE(path = tensor<string, []>("@model_path/weights/weight.bin"), offset = tensor<uint64, []>(108480)))];
            tensor<fp16, [32]> model_model_4_m_1_cv1_conv_bias_to_fp16 = const()[name = tensor<string, []>("model_model_4_m_1_cv1_conv_bias_to_fp16"), val = tensor<fp16, [32]>(BLOBFILE(path = tensor<string, []>("@model_path/weights/weight.bin"), offset = tensor<uint64, []>(126976)))];
            tensor<fp16, [1, 32, 40, 40]> input_41_cast_fp16 = conv(bias = model_model_4_m_1_cv1_conv_bias_to_fp16, dilations = input_41_dilations_0, groups = input_41_groups_0, pad = input_41_pad_0, pad_type = input_41_pad_type_0, strides = input_41_strides_0, weight = model_model_4_m_1_cv1_conv_weight_to_fp16, x = input_39_cast_fp16)[name = tensor<string, []>("input_41_cast_fp16")];
            tensor<fp16, [1, 32, 40, 40]> input_43_cast_fp16 = silu(x = input_41_cast_fp16)[name = tensor<string, []>("input_43_cast_fp16")];
            tensor<string, []> input_45_pad_type_0 = const()[name = tensor<string, []>("input_45_pad_type_0"), val = tensor<string, []>("custom")];
            tensor<int32, [4]> input_45_pad_0 = const()[name = tensor<string, []>("input_45_pad_0"), val = tensor<int32, [4]>([1, 1, 1, 1])];
            tensor<int32, [2]> input_45_strides_0 = const()[name = tensor<string, []>("input_45_strides_0"), val = tensor<int32, [2]>([1, 1])];
            tensor<int32, [2]> input_45_dilations_0 = const()[name = tensor<string, []>("input_45_dilations_0"), val = tensor<int32, [2]>([1, 1])];
            tensor<int32, []> input_45_groups_0 = const()[name = tensor<string, []>("input_45_groups_0"), val = tensor<int32, []>(1)];
            tensor<fp16, [32, 32, 3, 3]> model_model_4_m_1_cv2_conv_weight_to_fp16 = const()[name = tensor<string, []>("model_model_4_m_1_cv2_conv_weight_to_fp16"), val = tensor<fp16, [32, 32, 3, 3]>(BLOBFILE(path = tensor<string, []>("@model_path/weights/weight.bin"), offset = tensor<uint64, []>(127104)))];
            tensor<fp16, [32]> model_model_4_m_1_cv2_conv_bias_to_fp16 = const()[name = tensor<string, []>("model_model_4_m_1_cv2_conv_bias_to_fp16"), val = tensor<fp16, [32]>(BLOBFILE(path = tensor<string, []>("@model_path/weights/weight.bin"), offset = tensor<uint64, []>(145600)))];
            tensor<fp16, [1, 32, 40, 40]> input_45_cast_fp16 = conv(bias = model_model_4_m_1_cv2_conv_bias_to_fp16, dilations = input_45_dilations_0, groups = input_45_groups_0, pad = input_45_pad_0, pad_type = input_45_pad_type_0, strides = input_45_strides_0, weight = model_model_4_m_1_cv2_conv_weight_to_fp16, x = input_43_cast_fp16)[name = tensor<string, []>("input_45_cast_fp16")];
            tensor<fp16, [1, 32, 40, 40]> var_189_cast_fp16 = silu(x = input_45_cast_fp16)[name = tensor<string, []>("op_189_cast_fp16")];
            tensor<fp16, [1, 32, 40, 40]> var_190_cast_fp16 = add(x = input_39_cast_fp16, y = var_189_cast_fp16)[name = tensor<string, []>("op_190_cast_fp16")];
            tensor<bool, []> input_47_interleave_0 = const()[name = tensor<string, []>("input_47_interleave_0"), val = tensor<bool, []>(false)];
            tensor<fp16, [1, 128, 40, 40]> input_47_cast_fp16 = concat(axis = var_18, interleave = input_47_interleave_0, values = (var_146_cast_fp16_0, var_146_cast_fp16_1, input_39_cast_fp16, var_190_cast_fp16))[name = tensor<string, []>("input_47_cast_fp16")];
            tensor<string, []> input_49_pad_type_0 = const()[name = tensor<string, []>("input_49_pad_type_0"), val = tensor<string, []>("valid")];
            tensor<int32, [2]> input_49_strides_0 = const()[name = tensor<string, []>("input_49_strides_0"), val = tensor<int32, [2]>([1, 1])];
            tensor<int32, [4]> input_49_pad_0 = const()[name = tensor<string, []>("input_49_pad_0"), val = tensor<int32, [4]>([0, 0, 0, 0])];
            tensor<int32, [2]> input_49_dilations_0 = const()[name = tensor<string, []>("input_49_dilations_0"), val = tensor<int32, [2]>([1, 1])];
            tensor<int32, []> input_49_groups_0 = const()[name = tensor<string, []>("input_49_groups_0"), val = tensor<int32, []>(1)];
            tensor<fp16, [64, 128, 1, 1]> model_model_4_cv2_conv_weight_to_fp16 = const()[name = tensor<string, []>("model_model_4_cv2_conv_weight_to_fp16"), val = tensor<fp16, [64, 128, 1, 1]>(BLOBFILE(path = tensor<string, []>("@model_path/weights/weight.bin"), offset = tensor<uint64, []>(145728)))];
            tensor<fp16, [64]> model_model_4_cv2_conv_bias_to_fp16 = const()[name = tensor<string, []>("model_model_4_cv2_conv_bias_to_fp16"), val = tensor<fp16, [64]>(BLOBFILE(path = tensor<string, []>("@model_path/weights/weight.bin"), offset = tensor<uint64, []>(162176)))];
            tensor<fp16, [1, 64, 40, 40]> input_49_cast_fp16 = conv(bias = model_model_4_cv2_conv_bias_to_fp16, dilations = input_49_dilations_0, groups = input_49_groups_0, pad = input_49_pad_0, pad_type = input_49_pad_type_0, strides = input_49_strides_0, weight = model_model_4_cv2_conv_weight_to_fp16, x = input_47_cast_fp16)[name = tensor<string, []>("input_49_cast_fp16")];
            tensor<fp16, [1, 64, 40, 40]> input_51_cast_fp16 = silu(x = input_49_cast_fp16)[name = tensor<string, []>("input_51_cast_fp16")];
            tensor<string, []> input_53_pad_type_0 = const()[name = tensor<string, []>("input_53_pad_type_0"), val = tensor<string, []>("custom")];
            tensor<int32, [4]> input_53_pad_0 = const()[name = tensor<string, []>("input_53_pad_0"), val = tensor<int32, [4]>([1, 1, 1, 1])];
            tensor<int32, [2]> input_53_strides_0 = const()[name = tensor<string, []>("input_53_strides_0"), val = tensor<int32, [2]>([2, 2])];
            tensor<int32, [2]> input_53_dilations_0 = const()[name = tensor<string, []>("input_53_dilations_0"), val = tensor<int32, [2]>([1, 1])];
            tensor<int32, []> input_53_groups_0 = const()[name = tensor<string, []>("input_53_groups_0"), val = tensor<int32, []>(1)];
            tensor<fp16, [128, 64, 3, 3]> model_model_5_conv_weight_to_fp16 = const()[name = tensor<string, []>("model_model_5_conv_weight_to_fp16"), val = tensor<fp16, [128, 64, 3, 3]>(BLOBFILE(path = tensor<string, []>("@model_path/weights/weight.bin"), offset = tensor<uint64, []>(162368)))];
            tensor<fp16, [128]> model_model_5_conv_bias_to_fp16 = const()[name = tensor<string, []>("model_model_5_conv_bias_to_fp16"), val = tensor<fp16, [128]>(BLOBFILE(path = tensor<string, []>("@model_path/weights/weight.bin"), offset = tensor<uint64, []>(309888)))];
            tensor<fp16, [1, 128, 20, 20]> input_53_cast_fp16 = conv(bias = model_model_5_conv_bias_to_fp16, dilations = input_53_dilations_0, groups = input_53_groups_0, pad = input_53_pad_0, pad_type = input_53_pad_type_0, strides = input_53_strides_0, weight = model_model_5_conv_weight_to_fp16, x = input_51_cast_fp16)[name = tensor<string, []>("input_53_cast_fp16")];
            tensor<fp16, [1, 128, 20, 20]> input_55_cast_fp16 = silu(x = input_53_cast_fp16)[name = tensor<string, []>("input_55_cast_fp16")];
            tensor<string, []> input_57_pad_type_0 = const()[name = tensor<string, []>("input_57_pad_type_0"), val = tensor<string, []>("valid")];
            tensor<int32, [2]> input_57_strides_0 = const()[name = tensor<string, []>("input_57_strides_0"), val = tensor<int32, [2]>([1, 1])];
            tensor<int32, [4]> input_57_pad_0 = const()[name = tensor<string, []>("input_57_pad_0"), val = tensor<int32, [4]>([0, 0, 0, 0])];
            tensor<int32, [2]> input_57_dilations_0 = const()[name = tensor<string, []>("input_57_dilations_0"), val = tensor<int32, [2]>([1, 1])];
            tensor<int32, []> input_57_groups_0 = const()[name = tensor<string, []>("input_57_groups_0"), val = tensor<int32, []>(1)];
            tensor<fp16, [128, 128, 1, 1]> model_model_6_cv1_conv_weight_to_fp16 = const()[name = tensor<string, []>("model_model_6_cv1_conv_weight_to_fp16"), val = tensor<fp16, [128, 128, 1, 1]>(BLOBFILE(path = tensor<string, []>("@model_path/weights/weight.bin"), offset = tensor<uint64, []>(310208)))];
            tensor<fp16, [128]> model_model_6_cv1_conv_bias_to_fp16 = const()[name = tensor<string, []>("model_model_6_cv1_conv_bias_to_fp16"), val = tensor<fp16, [128]>(BLOBFILE(path = tensor<string, []>("@model_path/weights/weight.bin"), offset = tensor<uint64, []>(343040)))];
            tensor<fp16, [1, 128, 20, 20]> input_57_cast_fp16 = conv(bias = model_model_6_cv1_conv_bias_to_fp16, dilations = input_57_dilations_0, groups = input_57_groups_0, pad = input_57_pad_0, pad_type = input_57_pad_type_0, strides = input_57_strides_0, weight = model_model_6_cv1_conv_weight_to_fp16, x = input_55_cast_fp16)[name = tensor<string, []>("input_57_cast_fp16")];
            tensor<fp16, [1, 128, 20, 20]> var_225_cast_fp16 = silu(x = input_57_cast_fp16)[name = tensor<string, []>("op_225_cast_fp16")];
            tensor<int32, [2]> var_226 = const()[name = tensor<string, []>("op_226"), val = tensor<int32, [2]>([64, 64])];
            tensor<int32, []> var_227_axis_0 = const()[name = tensor<string, []>("op_227_axis_0"), val = tensor<int32, []>(1)];
            tensor<fp16, [1, 64, 20, 20]> var_227_cast_fp16_0, tensor<fp16, [1, 64, 20, 20]> var_227_cast_fp16_1 = split(axis = var_227_axis_0, split_sizes = var_226, x = var_225_cast_fp16)[name = tensor<string, []>("op_227_cast_fp16")];
            tensor<string, []> input_61_pad_type_0 = const()[name = tensor<string, []>("input_61_pad_type_0"), val = tensor<string, []>("custom")];
            tensor<int32, [4]> input_61_pad_0 = const()[name = tensor<string, []>("input_61_pad_0"), val = tensor<int32, [4]>([1, 1, 1, 1])];
            tensor<int32, [2]> input_61_strides_0 = const()[name = tensor<string, []>("input_61_strides_0"), val = tensor<int32, [2]>([1, 1])];
            tensor<int32, [2]> input_61_dilations_0 = const()[name = tensor<string, []>("input_61_dilations_0"), val = tensor<int32, [2]>([1, 1])];
            tensor<int32, []> input_61_groups_0 = const()[name = tensor<string, []>("input_61_groups_0"), val = tensor<int32, []>(1)];
            tensor<fp16, [64, 64, 3, 3]> model_model_6_m_0_cv1_conv_weight_to_fp16 = const()[name = tensor<string, []>("model_model_6_m_0_cv1_conv_weight_to_fp16"), val = tensor<fp16, [64, 64, 3, 3]>(BLOBFILE(path = tensor<string, []>("@model_path/weights/weight.bin"), offset = tensor<uint64, []>(343360)))];
            tensor<fp16, [64]> model_model_6_m_0_cv1_conv_bias_to_fp16 = const()[name = tensor<string, []>("model_model_6_m_0_cv1_conv_bias_to_fp16"), val = tensor<fp16, [64]>(BLOBFILE(path = tensor<string, []>("@model_path/weights/weight.bin"), offset = tensor<uint64, []>(417152)))];
            tensor<fp16, [1, 64, 20, 20]> input_61_cast_fp16 = conv(bias = model_model_6_m_0_cv1_conv_bias_to_fp16, dilations = input_61_dilations_0, groups = input_61_groups_0, pad = input_61_pad_0, pad_type = input_61_pad_type_0, strides = input_61_strides_0, weight = model_model_6_m_0_cv1_conv_weight_to_fp16, x = var_227_cast_fp16_1)[name = tensor<string, []>("input_61_cast_fp16")];
            tensor<fp16, [1, 64, 20, 20]> input_63_cast_fp16 = silu(x = input_61_cast_fp16)[name = tensor<string, []>("input_63_cast_fp16")];
            tensor<string, []> input_65_pad_type_0 = const()[name = tensor<string, []>("input_65_pad_type_0"), val = tensor<string, []>("custom")];
            tensor<int32, [4]> input_65_pad_0 = const()[name = tensor<string, []>("input_65_pad_0"), val = tensor<int32, [4]>([1, 1, 1, 1])];
            tensor<int32, [2]> input_65_strides_0 = const()[name = tensor<string, []>("input_65_strides_0"), val = tensor<int32, [2]>([1, 1])];
            tensor<int32, [2]> input_65_dilations_0 = const()[name = tensor<string, []>("input_65_dilations_0"), val = tensor<int32, [2]>([1, 1])];
            tensor<int32, []> input_65_groups_0 = const()[name = tensor<string, []>("input_65_groups_0"), val = tensor<int32, []>(1)];
            tensor<fp16, [64, 64, 3, 3]> model_model_6_m_0_cv2_conv_weight_to_fp16 = const()[name = tensor<string, []>("model_model_6_m_0_cv2_conv_weight_to_fp16"), val = tensor<fp16, [64, 64, 3, 3]>(BLOBFILE(path = tensor<string, []>("@model_path/weights/weight.bin"), offset = tensor<uint64, []>(417344)))];
            tensor<fp16, [64]> model_model_6_m_0_cv2_conv_bias_to_fp16 = const()[name = tensor<string, []>("model_model_6_m_0_cv2_conv_bias_to_fp16"), val = tensor<fp16, [64]>(BLOBFILE(path = tensor<string, []>("@model_path/weights/weight.bin"), offset = tensor<uint64, []>(491136)))];
            tensor<fp16, [1, 64, 20, 20]> input_65_cast_fp16 = conv(bias = model_model_6_m_0_cv2_conv_bias_to_fp16, dilations = input_65_dilations_0, groups = input_65_groups_0, pad = input_65_pad_0, pad_type = input_65_pad_type_0, strides = input_65_strides_0, weight = model_model_6_m_0_cv2_conv_weight_to_fp16, x = input_63_cast_fp16)[name = tensor<string, []>("input_65_cast_fp16")];
            tensor<fp16, [1, 64, 20, 20]> var_249_cast_fp16 = silu(x = input_65_cast_fp16)[name = tensor<string, []>("op_249_cast_fp16")];
            tensor<fp16, [1, 64, 20, 20]> input_67_cast_fp16 = add(x = var_227_cast_fp16_1, y = var_249_cast_fp16)[name = tensor<string, []>("input_67_cast_fp16")];
            tensor<string, []> input_69_pad_type_0 = const()[name = tensor<string, []>("input_69_pad_type_0"), val = tensor<string, []>("custom")];
            tensor<int32, [4]> input_69_pad_0 = const()[name = tensor<string, []>("input_69_pad_0"), val = tensor<int32, [4]>([1, 1, 1, 1])];
            tensor<int32, [2]> input_69_strides_0 = const()[name = tensor<string, []>("input_69_strides_0"), val = tensor<int32, [2]>([1, 1])];
            tensor<int32, [2]> input_69_dilations_0 = const()[name = tensor<string, []>("input_69_dilations_0"), val = tensor<int32, [2]>([1, 1])];
            tensor<int32, []> input_69_groups_0 = const()[name = tensor<string, []>("input_69_groups_0"), val = tensor<int32, []>(1)];
            tensor<fp16, [64, 64, 3, 3]> model_model_6_m_1_cv1_conv_weight_to_fp16 = const()[name = tensor<string, []>("model_model_6_m_1_cv1_conv_weight_to_fp16"), val = tensor<fp16, [64, 64, 3, 3]>(BLOBFILE(path = tensor<string, []>("@model_path/weights/weight.bin"), offset = tensor<uint64, []>(491328)))];
            tensor<fp16, [64]> model_model_6_m_1_cv1_conv_bias_to_fp16 = const()[name = tensor<string, []>("model_model_6_m_1_cv1_conv_bias_to_fp16"), val = tensor<fp16, [64]>(BLOBFILE(path = tensor<string, []>("@model_path/weights/weight.bin"), offset = tensor<uint64, []>(565120)))];
            tensor<fp16, [1, 64, 20, 20]> input_69_cast_fp16 = conv(bias = model_model_6_m_1_cv1_conv_bias_to_fp16, dilations = input_69_dilations_0, groups = input_69_groups_0, pad = input_69_pad_0, pad_type = input_69_pad_type_0, strides = input_69_strides_0, weight = model_model_6_m_1_cv1_conv_weight_to_fp16, x = input_67_cast_fp16)[name = tensor<string, []>("input_69_cast_fp16")];
            tensor<fp16, [1, 64, 20, 20]> input_71_cast_fp16 = silu(x = input_69_cast_fp16)[name = tensor<string, []>("input_71_cast_fp16")];
            tensor<string, []> input_73_pad_type_0 = const()[name = tensor<string, []>("input_73_pad_type_0"), val = tensor<string, []>("custom")];
            tensor<int32, [4]> input_73_pad_0 = const()[name = tensor<string, []>("input_73_pad_0"), val = tensor<int32, [4]>([1, 1, 1, 1])];
            tensor<int32, [2]> input_73_strides_0 = const()[name = tensor<string, []>("input_73_strides_0"), val = tensor<int32, [2]>([1, 1])];
            tensor<int32, [2]> input_73_dilations_0 = const()[name = tensor<string, []>("input_73_dilations_0"), val = tensor<int32, [2]>([1, 1])];
            tensor<int32, []> input_73_groups_0 = const()[name = tensor<string, []>("input_73_groups_0"), val = tensor<int32, []>(1)];
            tensor<fp16, [64, 64, 3, 3]> model_model_6_m_1_cv2_conv_weight_to_fp16 = const()[name = tensor<string, []>("model_model_6_m_1_cv2_conv_weight_to_fp16"), val = tensor<fp16, [64, 64, 3, 3]>(BLOBFILE(path = tensor<string, []>("@model_path/weights/weight.bin"), offset = tensor<uint64, []>(565312)))];
            tensor<fp16, [64]> model_model_6_m_1_cv2_conv_bias_to_fp16 = const()[name = tensor<string, []>("model_model_6_m_1_cv2_conv_bias_to_fp16"), val = tensor<fp16, [64]>(BLOBFILE(path = tensor<string, []>("@model_path/weights/weight.bin"), offset = tensor<uint64, []>(639104)))];
            tensor<fp16, [1, 64, 20, 20]> input_73_cast_fp16 = conv(bias = model_model_6_m_1_cv2_conv_bias_to_fp16, dilations = input_73_dilations_0, groups = input_73_groups_0, pad = input_73_pad_0, pad_type = input_73_pad_type_0, strides = input_73_strides_0, weight = model_model_6_m_1_cv2_conv_weight_to_fp16, x = input_71_cast_fp16)[name = tensor<string, []>("input_73_cast_fp16")];
            tensor<fp16, [1, 64, 20, 20]> var_270_cast_fp16 = silu(x = input_73_cast_fp16)[name = tensor<string, []>("op_270_cast_fp16")];
            tensor<fp16, [1, 64, 20, 20]> var_271_cast_fp16 = add(x = input_67_cast_fp16, y = var_270_cast_fp16)[name = tensor<string, []>("op_271_cast_fp16")];
            tensor<bool, []> input_75_interleave_0 = const()[name = tensor<string, []>("input_75_interleave_0"), val = tensor<bool, []>(false)];
            tensor<fp16, [1, 256, 20, 20]> input_75_cast_fp16 = concat(axis = var_18, interleave = input_75_interleave_0, values = (var_227_cast_fp16_0, var_227_cast_fp16_1, input_67_cast_fp16, var_271_cast_fp16))[name = tensor<string, []>("input_75_cast_fp16")];
            tensor<string, []> input_77_pad_type_0 = const()[name = tensor<string, []>("input_77_pad_type_0"), val = tensor<string, []>("valid")];
            tensor<int32, [2]> input_77_strides_0 = const()[name = tensor<string, []>("input_77_strides_0"), val = tensor<int32, [2]>([1, 1])];
            tensor<int32, [4]> input_77_pad_0 = const()[name = tensor<string, []>("input_77_pad_0"), val = tensor<int32, [4]>([0, 0, 0, 0])];
            tensor<int32, [2]> input_77_dilations_0 = const()[name = tensor<string, []>("input_77_dilations_0"), val = tensor<int32, [2]>([1, 1])];
            tensor<int32, []> input_77_groups_0 = const()[name = tensor<string, []>("input_77_groups_0"), val = tensor<int32, []>(1)];
            tensor<fp16, [128, 256, 1, 1]> model_model_6_cv2_conv_weight_to_fp16 = const()[name = tensor<string, []>("model_model_6_cv2_conv_weight_to_fp16"), val = tensor<fp16, [128, 256, 1, 1]>(BLOBFILE(path = tensor<string, []>("@model_path/weights/weight.bin"), offset = tensor<uint64, []>(639296)))];
            tensor<fp16, [128]> model_model_6_cv2_conv_bias_to_fp16 = const()[name = tensor<string, []>("model_model_6_cv2_conv_bias_to_fp16"), val = tensor<fp16, [128]>(BLOBFILE(path = tensor<string, []>("@model_path/weights/weight.bin"), offset = tensor<uint64, []>(704896)))];
            tensor<fp16, [1, 128, 20, 20]> input_77_cast_fp16 = conv(bias = model_model_6_cv2_conv_bias_to_fp16, dilations = input_77_dilations_0, groups = input_77_groups_0, pad = input_77_pad_0, pad_type = input_77_pad_type_0, strides = input_77_strides_0, weight = model_model_6_cv2_conv_weight_to_fp16, x = input_75_cast_fp16)[name = tensor<string, []>("input_77_cast_fp16")];
            tensor<fp16, [1, 128, 20, 20]> input_79_cast_fp16 = silu(x = input_77_cast_fp16)[name = tensor<string, []>("input_79_cast_fp16")];
            tensor<string, []> input_81_pad_type_0 = const()[name = tensor<string, []>("input_81_pad_type_0"), val = tensor<string, []>("custom")];
            tensor<int32, [4]> input_81_pad_0 = const()[name = tensor<string, []>("input_81_pad_0"), val = tensor<int32, [4]>([1, 1, 1, 1])];
            tensor<int32, [2]> input_81_strides_0 = const()[name = tensor<string, []>("input_81_strides_0"), val = tensor<int32, [2]>([2, 2])];
            tensor<int32, [2]> input_81_dilations_0 = const()[name = tensor<string, []>("input_81_dilations_0"), val = tensor<int32, [2]>([1, 1])];
            tensor<int32, []> input_81_groups_0 = const()[name = tensor<string, []>("input_81_groups_0"), val = tensor<int32, []>(1)];
            tensor<fp16, [256, 128, 3, 3]> model_model_7_conv_weight_to_fp16 = const()[name = tensor<string, []>("model_model_7_conv_weight_to_fp16"), val = tensor<fp16, [256, 128, 3, 3]>(BLOBFILE(path = tensor<string, []>("@model_path/weights/weight.bin"), offset = tensor<uint64, []>(705216)))];
            tensor<fp16, [256]> model_model_7_conv_bias_to_fp16 = const()[name = tensor<string, []>("model_model_7_conv_bias_to_fp16"), val = tensor<fp16, [256]>(BLOBFILE(path = tensor<string, []>("@model_path/weights/weight.bin"), offset = tensor<uint64, []>(1295104)))];
            tensor<fp16, [1, 256, 10, 10]> input_81_cast_fp16 = conv(bias = model_model_7_conv_bias_to_fp16, dilations = input_81_dilations_0, groups = input_81_groups_0, pad = input_81_pad_0, pad_type = input_81_pad_type_0, strides = input_81_strides_0, weight = model_model_7_conv_weight_to_fp16, x = input_79_cast_fp16)[name = tensor<string, []>("input_81_cast_fp16")];
            tensor<fp16, [1, 256, 10, 10]> input_83_cast_fp16 = silu(x = input_81_cast_fp16)[name = tensor<string, []>("input_83_cast_fp16")];
            tensor<string, []> input_85_pad_type_0 = const()[name = tensor<string, []>("input_85_pad_type_0"), val = tensor<string, []>("valid")];
            tensor<int32, [2]> input_85_strides_0 = const()[name = tensor<string, []>("input_85_strides_0"), val = tensor<int32, [2]>([1, 1])];
            tensor<int32, [4]> input_85_pad_0 = const()[name = tensor<string, []>("input_85_pad_0"), val = tensor<int32, [4]>([0, 0, 0, 0])];
            tensor<int32, [2]> input_85_dilations_0 = const()[name = tensor<string, []>("input_85_dilations_0"), val = tensor<int32, [2]>([1, 1])];
            tensor<int32, []> input_85_groups_0 = const()[name = tensor<string, []>("input_85_groups_0"), val = tensor<int32, []>(1)];
            tensor<fp16, [256, 256, 1, 1]> model_model_8_cv1_conv_weight_to_fp16 = const()[name = tensor<string, []>("model_model_8_cv1_conv_weight_to_fp16"), val = tensor<fp16, [256, 256, 1, 1]>(BLOBFILE(path = tensor<string, []>("@model_path/weights/weight.bin"), offset = tensor<uint64, []>(1295680)))];
            tensor<fp16, [256]> model_model_8_cv1_conv_bias_to_fp16 = const()[name = tensor<string, []>("model_model_8_cv1_conv_bias_to_fp16"), val = tensor<fp16, [256]>(BLOBFILE(path = tensor<string, []>("@model_path/weights/weight.bin"), offset = tensor<uint64, []>(1426816)))];
            tensor<fp16, [1, 256, 10, 10]> input_85_cast_fp16 = conv(bias = model_model_8_cv1_conv_bias_to_fp16, dilations = input_85_dilations_0, groups = input_85_groups_0, pad = input_85_pad_0, pad_type = input_85_pad_type_0, strides = input_85_strides_0, weight = model_model_8_cv1_conv_weight_to_fp16, x = input_83_cast_fp16)[name = tensor<string, []>("input_85_cast_fp16")];
            tensor<fp16, [1, 256, 10, 10]> var_304_cast_fp16 = silu(x = input_85_cast_fp16)[name = tensor<string, []>("op_304_cast_fp16")];
            tensor<int32, [2]> var_305 = const()[name = tensor<string, []>("op_305"), val = tensor<int32, [2]>([128, 128])];
            tensor<int32, []> var_306_axis_0 = const()[name = tensor<string, []>("op_306_axis_0"), val = tensor<int32, []>(1)];
            tensor<fp16, [1, 128, 10, 10]> var_306_cast_fp16_0, tensor<fp16, [1, 128, 10, 10]> var_306_cast_fp16_1 = split(axis = var_306_axis_0, split_sizes = var_305, x = var_304_cast_fp16)[name = tensor<string, []>("op_306_cast_fp16")];
            tensor<string, []> input_89_pad_type_0 = const()[name = tensor<string, []>("input_89_pad_type_0"), val = tensor<string, []>("custom")];
            tensor<int32, [4]> input_89_pad_0 = const()[name = tensor<string, []>("input_89_pad_0"), val = tensor<int32, [4]>([1, 1, 1, 1])];
            tensor<int32, [2]> input_89_strides_0 = const()[name = tensor<string, []>("input_89_strides_0"), val = tensor<int32, [2]>([1, 1])];
            tensor<int32, [2]> input_89_dilations_0 = const()[name = tensor<string, []>("input_89_dilations_0"), val = tensor<int32, [2]>([1, 1])];
            tensor<int32, []> input_89_groups_0 = const()[name = tensor<string, []>("input_89_groups_0"), val = tensor<int32, []>(1)];
            tensor<fp16, [128, 128, 3, 3]> model_model_8_m_0_cv1_conv_weight_to_fp16 = const()[name = tensor<string, []>("model_model_8_m_0_cv1_conv_weight_to_fp16"), val = tensor<fp16, [128, 128, 3, 3]>(BLOBFILE(path = tensor<string, []>("@model_path/weights/weight.bin"), offset = tensor<uint64, []>(1427392)))];
            tensor<fp16, [128]> model_model_8_m_0_cv1_conv_bias_to_fp16 = const()[name = tensor<string, []>("model_model_8_m_0_cv1_conv_bias_to_fp16"), val = tensor<fp16, [128]>(BLOBFILE(path = tensor<string, []>("@model_path/weights/weight.bin"), offset = tensor<uint64, []>(1722368)))];
            tensor<fp16, [1, 128, 10, 10]> input_89_cast_fp16 = conv(bias = model_model_8_m_0_cv1_conv_bias_to_fp16, dilations = input_89_dilations_0, groups = input_89_groups_0, pad = input_89_pad_0, pad_type = input_89_pad_type_0, strides = input_89_strides_0, weight = model_model_8_m_0_cv1_conv_weight_to_fp16, x = var_306_cast_fp16_1)[name = tensor<string, []>("input_89_cast_fp16")];
            tensor<fp16, [1, 128, 10, 10]> input_91_cast_fp16 = silu(x = input_89_cast_fp16)[name = tensor<string, []>("input_91_cast_fp16")];
            tensor<string, []> input_93_pad_type_0 = const()[name = tensor<string, []>("input_93_pad_type_0"), val = tensor<string, []>("custom")];
            tensor<int32, [4]> input_93_pad_0 = const()[name = tensor<string, []>("input_93_pad_0"), val = tensor<int32, [4]>([1, 1, 1, 1])];
            tensor<int32, [2]> input_93_strides_0 = const()[name = tensor<string, []>("input_93_strides_0"), val = tensor<int32, [2]>([1, 1])];
            tensor<int32, [2]> input_93_dilations_0 = const()[name = tensor<string, []>("input_93_dilations_0"), val = tensor<int32, [2]>([1, 1])];
            tensor<int32, []> input_93_groups_0 = const()[name = tensor<string, []>("input_93_groups_0"), val = tensor<int32, []>(1)];
            tensor<fp16, [128, 128, 3, 3]> model_model_8_m_0_cv2_conv_weight_to_fp16 = const()[name = tensor<string, []>("model_model_8_m_0_cv2_conv_weight_to_fp16"), val = tensor<fp16, [128, 128, 3, 3]>(BLOBFILE(path = tensor<string, []>("@model_path/weights/weight.bin"), offset = tensor<uint64, []>(1722688)))];
            tensor<fp16, [128]> model_model_8_m_0_cv2_conv_bias_to_fp16 = const()[name = tensor<string, []>("model_model_8_m_0_cv2_conv_bias_to_fp16"), val = tensor<fp16, [128]>(BLOBFILE(path = tensor<string, []>("@model_path/weights/weight.bin"), offset = tensor<uint64, []>(2017664)))];
            tensor<fp16, [1, 128, 10, 10]> input_93_cast_fp16 = conv(bias = model_model_8_m_0_cv2_conv_bias_to_fp16, dilations = input_93_dilations_0, groups = input_93_groups_0, pad = input_93_pad_0, pad_type = input_93_pad_type_0, strides = input_93_strides_0, weight = model_model_8_m_0_cv2_conv_weight_to_fp16, x = input_91_cast_fp16)[name = tensor<string, []>("input_93_cast_fp16")];
            tensor<fp16, [1, 128, 10, 10]> var_328_cast_fp16 = silu(x = input_93_cast_fp16)[name = tensor<string, []>("op_328_cast_fp16")];
            tensor<fp16, [1, 128, 10, 10]> var_329_cast_fp16 = add(x = var_306_cast_fp16_1, y = var_328_cast_fp16)[name = tensor<string, []>("op_329_cast_fp16")];
            tensor<bool, []> input_95_interleave_0 = const()[name = tensor<string, []>("input_95_interleave_0"), val = tensor<bool, []>(false)];
            tensor<fp16, [1, 384, 10, 10]> input_95_cast_fp16 = concat(axis = var_18, interleave = input_95_interleave_0, values = (var_306_cast_fp16_0, var_306_cast_fp16_1, var_329_cast_fp16))[name = tensor<string, []>("input_95_cast_fp16")];
            tensor<string, []> input_97_pad_type_0 = const()[name = tensor<string, []>("input_97_pad_type_0"), val = tensor<string, []>("valid")];
            tensor<int32, [2]> input_97_strides_0 = const()[name = tensor<string, []>("input_97_strides_0"), val = tensor<int32, [2]>([1, 1])];
            tensor<int32, [4]> input_97_pad_0 = const()[name = tensor<string, []>("input_97_pad_0"), val = tensor<int32, [4]>([0, 0, 0, 0])];
            tensor<int32, [2]> input_97_dilations_0 = const()[name = tensor<string, []>("input_97_dilations_0"), val = tensor<int32, [2]>([1, 1])];
            tensor<int32, []> input_97_groups_0 = const()[name = tensor<string, []>("input_97_groups_0"), val = tensor<int32, []>(1)];
            tensor<fp16, [256, 384, 1, 1]> model_model_8_cv2_conv_weight_to_fp16 = const()[name = tensor<string, []>("model_model_8_cv2_conv_weight_to_fp16"), val = tensor<fp16, [256, 384, 1, 1]>(BLOBFILE(path = tensor<string, []>("@model_path/weights/weight.bin"), offset = tensor<uint64, []>(2017984)))];
            tensor<fp16, [256]> model_model_8_cv2_conv_bias_to_fp16 = const()[name = tensor<string, []>("model_model_8_cv2_conv_bias_to_fp16"), val = tensor<fp16, [256]>(BLOBFILE(path = tensor<string, []>("@model_path/weights/weight.bin"), offset = tensor<uint64, []>(2214656)))];
            tensor<fp16, [1, 256, 10, 10]> input_97_cast_fp16 = conv(bias = model_model_8_cv2_conv_bias_to_fp16, dilations = input_97_dilations_0, groups = input_97_groups_0, pad = input_97_pad_0, pad_type = input_97_pad_type_0, strides = input_97_strides_0, weight = model_model_8_cv2_conv_weight_to_fp16, x = input_95_cast_fp16)[name = tensor<string, []>("input_97_cast_fp16")];
            tensor<fp16, [1, 256, 10, 10]> input_99_cast_fp16 = silu(x = input_97_cast_fp16)[name = tensor<string, []>("input_99_cast_fp16")];
            tensor<string, []> input_101_pad_type_0 = const()[name = tensor<string, []>("input_101_pad_type_0"), val = tensor<string, []>("valid")];
            tensor<int32, [2]> input_101_strides_0 = const()[name = tensor<string, []>("input_101_strides_0"), val = tensor<int32, [2]>([1, 1])];
            tensor<int32, [4]> input_101_pad_0 = const()[name = tensor<string, []>("input_101_pad_0"), val = tensor<int32, [4]>([0, 0, 0, 0])];
            tensor<int32, [2]> input_101_dilations_0 = const()[name = tensor<string, []>("input_101_dilations_0"), val = tensor<int32, [2]>([1, 1])];
            tensor<int32, []> input_101_groups_0 = const()[name = tensor<string, []>("input_101_groups_0"), val = tensor<int32, []>(1)];
            tensor<fp16, [128, 256, 1, 1]> model_model_9_cv1_conv_weight_to_fp16 = const()[name = tensor<string, []>("model_model_9_cv1_conv_weight_to_fp16"), val = tensor<fp16, [128, 256, 1, 1]>(BLOBFILE(path = tensor<string, []>("@model_path/weights/weight.bin"), offset = tensor<uint64, []>(2215232)))];
            tensor<fp16, [128]> model_model_9_cv1_conv_bias_to_fp16 = const()[name = tensor<string, []>("model_model_9_cv1_conv_bias_to_fp16"), val = tensor<fp16, [128]>(BLOBFILE(path = tensor<string, []>("@model_path/weights/weight.bin"), offset = tensor<uint64, []>(2280832)))];
            tensor<fp16, [1, 128, 10, 10]> input_101_cast_fp16 = conv(bias = model_model_9_cv1_conv_bias_to_fp16, dilations = input_101_dilations_0, groups = input_101_groups_0, pad = input_101_pad_0, pad_type = input_101_pad_type_0, strides = input_101_strides_0, weight = model_model_9_cv1_conv_weight_to_fp16, x = input_99_cast_fp16)[name = tensor<string, []>("input_101_cast_fp16")];
            tensor<fp16, [1, 128, 10, 10]> input_103_cast_fp16 = silu(x = input_101_cast_fp16)[name = tensor<string, []>("input_103_cast_fp16")];
            tensor<int32, [2]> var_352 = const()[name = tensor<string, []>("op_352"), val = tensor<int32, [2]>([5, 5])];
            tensor<int32, [2]> var_353 = const()[name = tensor<string, []>("op_353"), val = tensor<int32, [2]>([1, 1])];
            tensor<string, []> input_105_pad_type_0 = const()[name = tensor<string, []>("input_105_pad_type_0"), val = tensor<string, []>("custom")];
            tensor<int32, [4]> input_105_pad_0 = const()[name = tensor<string, []>("input_105_pad_0"), val = tensor<int32, [4]>([2, 2, 2, 2])];
            tensor<bool, []> input_105_ceil_mode_0 = const()[name = tensor<string, []>("input_105_ceil_mode_0"), val = tensor<bool, []>(false)];
            tensor<fp16, [1, 128, 10, 10]> input_105_cast_fp16 = max_pool(ceil_mode = input_105_ceil_mode_0, kernel_sizes = var_352, pad = input_105_pad_0, pad_type = input_105_pad_type_0, strides = var_353, x = input_103_cast_fp16)[name = tensor<string, []>("input_105_cast_fp16")];
            tensor<int32, [2]> var_357 = const()[name = tensor<string, []>("op_357"), val = tensor<int32, [2]>([5, 5])];
            tensor<int32, [2]> var_358 = const()[name = tensor<string, []>("op_358"), val = tensor<int32, [2]>([1, 1])];
            tensor<string, []> input_107_pad_type_0 = const()[name = tensor<string, []>("input_107_pad_type_0"), val = tensor<string, []>("custom")];
            tensor<int32, [4]> input_107_pad_0 = const()[name = tensor<string, []>("input_107_pad_0"), val = tensor<int32, [4]>([2, 2, 2, 2])];
            tensor<bool, []> input_107_ceil_mode_0 = const()[name = tensor<string, []>("input_107_ceil_mode_0"), val = tensor<bool, []>(false)];
            tensor<fp16, [1, 128, 10, 10]> input_107_cast_fp16 = max_pool(ceil_mode = input_107_ceil_mode_0, kernel_sizes = var_357, pad = input_107_pad_0, pad_type = input_107_pad_type_0, strides = var_358, x = input_105_cast_fp16)[name = tensor<string, []>("input_107_cast_fp16")];
            tensor<int32, [2]> var_362 = const()[name = tensor<string, []>("op_362"), val = tensor<int32, [2]>([5, 5])];
            tensor<int32, [2]> var_363 = const()[name = tensor<string, []>("op_363"), val = tensor<int32, [2]>([1, 1])];
            tensor<string, []> var_366_pad_type_0 = const()[name = tensor<string, []>("op_366_pad_type_0"), val = tensor<string, []>("custom")];
            tensor<int32, [4]> var_366_pad_0 = const()[name = tensor<string, []>("op_366_pad_0"), val = tensor<int32, [4]>([2, 2, 2, 2])];
            tensor<bool, []> var_366_ceil_mode_0 = const()[name = tensor<string, []>("op_366_ceil_mode_0"), val = tensor<bool, []>(false)];
            tensor<fp16, [1, 128, 10, 10]> var_366_cast_fp16 = max_pool(ceil_mode = var_366_ceil_mode_0, kernel_sizes = var_362, pad = var_366_pad_0, pad_type = var_366_pad_type_0, strides = var_363, x = input_107_cast_fp16)[name = tensor<string, []>("op_366_cast_fp16")];
            tensor<bool, []> input_109_interleave_0 = const()[name = tensor<string, []>("input_109_interleave_0"), val = tensor<bool, []>(false)];
            tensor<fp16, [1, 512, 10, 10]> input_109_cast_fp16 = concat(axis = var_18, interleave = input_109_interleave_0, values = (input_103_cast_fp16, input_105_cast_fp16, input_107_cast_fp16, var_366_cast_fp16))[name = tensor<string, []>("input_109_cast_fp16")];
            tensor<string, []> input_111_pad_type_0 = const()[name = tensor<string, []>("input_111_pad_type_0"), val = tensor<string, []>("valid")];
            tensor<int32, [2]> input_111_strides_0 = const()[name = tensor<string, []>("input_111_strides_0"), val = tensor<int32, [2]>([1, 1])];
            tensor<int32, [4]> input_111_pad_0 = const()[name = tensor<string, []>("input_111_pad_0"), val = tensor<int32, [4]>([0, 0, 0, 0])];
            tensor<int32, [2]> input_111_dilations_0 = const()[name = tensor<string, []>("input_111_dilations_0"), val = tensor<int32, [2]>([1, 1])];
            tensor<int32, []> input_111_groups_0 = const()[name = tensor<string, []>("input_111_groups_0"), val = tensor<int32, []>(1)];
            tensor<fp16, [256, 512, 1, 1]> model_model_9_cv2_conv_weight_to_fp16 = const()[name = tensor<string, []>("model_model_9_cv2_conv_weight_to_fp16"), val = tensor<fp16, [256, 512, 1, 1]>(BLOBFILE(path = tensor<string, []>("@model_path/weights/weight.bin"), offset = tensor<uint64, []>(2281152)))];
            tensor<fp16, [256]> model_model_9_cv2_conv_bias_to_fp16 = const()[name = tensor<string, []>("model_model_9_cv2_conv_bias_to_fp16"), val = tensor<fp16, [256]>(BLOBFILE(path = tensor<string, []>("@model_path/weights/weight.bin"), offset = tensor<uint64, []>(2543360)))];
            tensor<fp16, [1, 256, 10, 10]> input_111_cast_fp16 = conv(bias = model_model_9_cv2_conv_bias_to_fp16, dilations = input_111_dilations_0, groups = input_111_groups_0, pad = input_111_pad_0, pad_type = input_111_pad_type_0, strides = input_111_strides_0, weight = model_model_9_cv2_conv_weight_to_fp16, x = input_109_cast_fp16)[name = tensor<string, []>("input_111_cast_fp16")];
            tensor<fp16, [1, 256, 10, 10]> input_113_cast_fp16 = silu(x = input_111_cast_fp16)[name = tensor<string, []>("input_113_cast_fp16")];
            tensor<fp32, []> var_379_scale_factor_height_0 = const()[name = tensor<string, []>("op_379_scale_factor_height_0"), val = tensor<fp32, []>(0x1p+1)];
            tensor<fp32, []> var_379_scale_factor_width_0 = const()[name = tensor<string, []>("op_379_scale_factor_width_0"), val = tensor<fp32, []>(0x1p+1)];
            tensor<fp16, [1, 256, 20, 20]> var_379_cast_fp16 = upsample_nearest_neighbor(scale_factor_height = var_379_scale_factor_height_0, scale_factor_width = var_379_scale_factor_width_0, x = input_113_cast_fp16)[name = tensor<string, []>("op_379_cast_fp16")];
            tensor<bool, []> input_115_interleave_0 = const()[name = tensor<string, []>("input_115_interleave_0"), val = tensor<bool, []>(false)];
            tensor<fp16, [1, 384, 20, 20]> input_115_cast_fp16 = concat(axis = var_18, interleave = input_115_interleave_0, values = (var_379_cast_fp16, input_79_cast_fp16))[name = tensor<string, []>("input_115_cast_fp16")];
            tensor<string, []> input_117_pad_type_0 = const()[name = tensor<string, []>("input_117_pad_type_0"), val = tensor<string, []>("valid")];
            tensor<int32, [2]> input_117_strides_0 = const()[name = tensor<string, []>("input_117_strides_0"), val = tensor<int32, [2]>([1, 1])];
            tensor<int32, [4]> input_117_pad_0 = const()[name = tensor<string, []>("input_117_pad_0"), val = tensor<int32, [4]>([0, 0, 0, 0])];
            tensor<int32, [2]> input_117_dilations_0 = const()[name = tensor<string, []>("input_117_dilations_0"), val = tensor<int32, [2]>([1, 1])];
            tensor<int32, []> input_117_groups_0 = const()[name = tensor<string, []>("input_117_groups_0"), val = tensor<int32, []>(1)];
            tensor<fp16, [128, 384, 1, 1]> model_model_12_cv1_conv_weight_to_fp16 = const()[name = tensor<string, []>("model_model_12_cv1_conv_weight_to_fp16"), val = tensor<fp16, [128, 384, 1, 1]>(BLOBFILE(path = tensor<string, []>("@model_path/weights/weight.bin"), offset = tensor<uint64, []>(2543936)))];
            tensor<fp16, [128]> model_model_12_cv1_conv_bias_to_fp16 = const()[name = tensor<string, []>("model_model_12_cv1_conv_bias_to_fp16"), val = tensor<fp16, [128]>(BLOBFILE(path = tensor<string, []>("@model_path/weights/weight.bin"), offset = tensor<uint64, []>(2642304)))];
            tensor<fp16, [1, 128, 20, 20]> input_117_cast_fp16 = conv(bias = model_model_12_cv1_conv_bias_to_fp16, dilations = input_117_dilations_0, groups = input_117_groups_0, pad = input_117_pad_0, pad_type = input_117_pad_type_0, strides = input_117_strides_0, weight = model_model_12_cv1_conv_weight_to_fp16, x = input_115_cast_fp16)[name = tensor<string, []>("input_117_cast_fp16")];
            tensor<fp16, [1, 128, 20, 20]> var_394_cast_fp16 = silu(x = input_117_cast_fp16)[name = tensor<string, []>("op_394_cast_fp16")];
            tensor<int32, [2]> var_395 = const()[name = tensor<string, []>("op_395"), val = tensor<int32, [2]>([64, 64])];
            tensor<int32, []> var_396_axis_0 = const()[name = tensor<string, []>("op_396_axis_0"), val = tensor<int32, []>(1)];
            tensor<fp16, [1, 64, 20, 20]> var_396_cast_fp16_0, tensor<fp16, [1, 64, 20, 20]> var_396_cast_fp16_1 = split(axis = var_396_axis_0, split_sizes = var_395, x = var_394_cast_fp16)[name = tensor<string, []>("op_396_cast_fp16")];
            tensor<string, []> input_121_pad_type_0 = const()[name = tensor<string, []>("input_121_pad_type_0"), val = tensor<string, []>("custom")];
            tensor<int32, [4]> input_121_pad_0 = const()[name = tensor<string, []>("input_121_pad_0"), val = tensor<int32, [4]>([1, 1, 1, 1])];
            tensor<int32, [2]> input_121_strides_0 = const()[name = tensor<string, []>("input_121_strides_0"), val = tensor<int32, [2]>([1, 1])];
            tensor<int32, [2]> input_121_dilations_0 = const()[name = tensor<string, []>("input_121_dilations_0"), val = tensor<int32, [2]>([1, 1])];
            tensor<int32, []> input_121_groups_0 = const()[name = tensor<string, []>("input_121_groups_0"), val = tensor<int32, []>(1)];
            tensor<fp16, [64, 64, 3, 3]> model_model_12_m_0_cv1_conv_weight_to_fp16 = const()[name = tensor<string, []>("model_model_12_m_0_cv1_conv_weight_to_fp16"), val = tensor<fp16, [64, 64, 3, 3]>(BLOBFILE(path = tensor<string, []>("@model_path/weights/weight.bin"), offset = tensor<uint64, []>(2642624)))];
            tensor<fp16, [64]> model_model_12_m_0_cv1_conv_bias_to_fp16 = const()[name = tensor<string, []>("model_model_12_m_0_cv1_conv_bias_to_fp16"), val = tensor<fp16, [64]>(BLOBFILE(path = tensor<string, []>("@model_path/weights/weight.bin"), offset = tensor<uint64, []>(2716416)))];
            tensor<fp16, [1, 64, 20, 20]> input_121_cast_fp16 = conv(bias = model_model_12_m_0_cv1_conv_bias_to_fp16, dilations = input_121_dilations_0, groups = input_121_groups_0, pad = input_121_pad_0, pad_type = input_121_pad_type_0, strides = input_121_strides_0, weight = model_model_12_m_0_cv1_conv_weight_to_fp16, x = var_396_cast_fp16_1)[name = tensor<string, []>("input_121_cast_fp16")];
            tensor<fp16, [1, 64, 20, 20]> input_123_cast_fp16 = silu(x = input_121_cast_fp16)[name = tensor<string, []>("input_123_cast_fp16")];
            tensor<string, []> input_125_pad_type_0 = const()[name = tensor<string, []>("input_125_pad_type_0"), val = tensor<string, []>("custom")];
            tensor<int32, [4]> input_125_pad_0 = const()[name = tensor<string, []>("input_125_pad_0"), val = tensor<int32, [4]>([1, 1, 1, 1])];
            tensor<int32, [2]> input_125_strides_0 = const()[name = tensor<string, []>("input_125_strides_0"), val = tensor<int32, [2]>([1, 1])];
            tensor<int32, [2]> input_125_dilations_0 = const()[name = tensor<string, []>("input_125_dilations_0"), val = tensor<int32, [2]>([1, 1])];
            tensor<int32, []> input_125_groups_0 = const()[name = tensor<string, []>("input_125_groups_0"), val = tensor<int32, []>(1)];
            tensor<fp16, [64, 64, 3, 3]> model_model_12_m_0_cv2_conv_weight_to_fp16 = const()[name = tensor<string, []>("model_model_12_m_0_cv2_conv_weight_to_fp16"), val = tensor<fp16, [64, 64, 3, 3]>(BLOBFILE(path = tensor<string, []>("@model_path/weights/weight.bin"), offset = tensor<uint64, []>(2716608)))];
            tensor<fp16, [64]> model_model_12_m_0_cv2_conv_bias_to_fp16 = const()[name = tensor<string, []>("model_model_12_m_0_cv2_conv_bias_to_fp16"), val = tensor<fp16, [64]>(BLOBFILE(path = tensor<string, []>("@model_path/weights/weight.bin"), offset = tensor<uint64, []>(2790400)))];
            tensor<fp16, [1, 64, 20, 20]> input_125_cast_fp16 = conv(bias = model_model_12_m_0_cv2_conv_bias_to_fp16, dilations = input_125_dilations_0, groups = input_125_groups_0, pad = input_125_pad_0, pad_type = input_125_pad_type_0, strides = input_125_strides_0, weight = model_model_12_m_0_cv2_conv_weight_to_fp16, x = input_123_cast_fp16)[name = tensor<string, []>("input_125_cast_fp16")];
            tensor<fp16, [1, 64, 20, 20]> var_418_cast_fp16 = silu(x = input_125_cast_fp16)[name = tensor<string, []>("op_418_cast_fp16")];
            tensor<bool, []> input_127_interleave_0 = const()[name = tensor<string, []>("input_127_interleave_0"), val = tensor<bool, []>(false)];
            tensor<fp16, [1, 192, 20, 20]> input_127_cast_fp16 = concat(axis = var_18, interleave = input_127_interleave_0, values = (var_396_cast_fp16_0, var_396_cast_fp16_1, var_418_cast_fp16))[name = tensor<string, []>("input_127_cast_fp16")];
            tensor<string, []> input_129_pad_type_0 = const()[name = tensor<string, []>("input_129_pad_type_0"), val = tensor<string, []>("valid")];
            tensor<int32, [2]> input_129_strides_0 = const()[name = tensor<string, []>("input_129_strides_0"), val = tensor<int32, [2]>([1, 1])];
            tensor<int32, [4]> input_129_pad_0 = const()[name = tensor<string, []>("input_129_pad_0"), val = tensor<int32, [4]>([0, 0, 0, 0])];
            tensor<int32, [2]> input_129_dilations_0 = const()[name = tensor<string, []>("input_129_dilations_0"), val = tensor<int32, [2]>([1, 1])];
            tensor<int32, []> input_129_groups_0 = const()[name = tensor<string, []>("input_129_groups_0"), val = tensor<int32, []>(1)];
            tensor<fp16, [128, 192, 1, 1]> model_model_12_cv2_conv_weight_to_fp16 = const()[name = tensor<string, []>("model_model_12_cv2_conv_weight_to_fp16"), val = tensor<fp16, [128, 192, 1, 1]>(BLOBFILE(path = tensor<string, []>("@model_path/weights/weight.bin"), offset = tensor<uint64, []>(2790592)))];
            tensor<fp16, [128]> model_model_12_cv2_conv_bias_to_fp16 = const()[name = tensor<string, []>("model_model_12_cv2_conv_bias_to_fp16"), val = tensor<fp16, [128]>(BLOBFILE(path = tensor<string, []>("@model_path/weights/weight.bin"), offset = tensor<uint64, []>(2839808)))];
            tensor<fp16, [1, 128, 20, 20]> input_129_cast_fp16 = conv(bias = model_model_12_cv2_conv_bias_to_fp16, dilations = input_129_dilations_0, groups = input_129_groups_0, pad = input_129_pad_0, pad_type = input_129_pad_type_0, strides = input_129_strides_0, weight = model_model_12_cv2_conv_weight_to_fp16, x = input_127_cast_fp16)[name = tensor<string, []>("input_129_cast_fp16")];
            tensor<fp16, [1, 128, 20, 20]> input_131_cast_fp16 = silu(x = input_129_cast_fp16)[name = tensor<string, []>("input_131_cast_fp16")];
            tensor<fp32, []> var_431_scale_factor_height_0 = const()[name = tensor<string, []>("op_431_scale_factor_height_0"), val = tensor<fp32, []>(0x1p+1)];
            tensor<fp32, []> var_431_scale_factor_width_0 = const()[name = tensor<string, []>("op_431_scale_factor_width_0"), val = tensor<fp32, []>(0x1p+1)];
            tensor<fp16, [1, 128, 40, 40]> var_431_cast_fp16 = upsample_nearest_neighbor(scale_factor_height = var_431_scale_factor_height_0, scale_factor_width = var_431_scale_factor_width_0, x = input_131_cast_fp16)[name = tensor<string, []>("op_431_cast_fp16")];
            tensor<bool, []> input_133_interleave_0 = const()[name = tensor<string, []>("input_133_interleave_0"), val = tensor<bool, []>(false)];
            tensor<fp16, [1, 192, 40, 40]> input_133_cast_fp16 = concat(axis = var_18, interleave = input_133_interleave_0, values = (var_431_cast_fp16, input_51_cast_fp16))[name = tensor<string, []>("input_133_cast_fp16")];
            tensor<string, []> input_135_pad_type_0 = const()[name = tensor<string, []>("input_135_pad_type_0"), val = tensor<string, []>("valid")];
            tensor<int32, [2]> input_135_strides_0 = const()[name = tensor<string, []>("input_135_strides_0"), val = tensor<int32, [2]>([1, 1])];
            tensor<int32, [4]> input_135_pad_0 = const()[name = tensor<string, []>("input_135_pad_0"), val = tensor<int32, [4]>([0, 0, 0, 0])];
            tensor<int32, [2]> input_135_dilations_0 = const()[name = tensor<string, []>("input_135_dilations_0"), val = tensor<int32, [2]>([1, 1])];
            tensor<int32, []> input_135_groups_0 = const()[name = tensor<string, []>("input_135_groups_0"), val = tensor<int32, []>(1)];
            tensor<fp16, [64, 192, 1, 1]> model_model_15_cv1_conv_weight_to_fp16 = const()[name = tensor<string, []>("model_model_15_cv1_conv_weight_to_fp16"), val = tensor<fp16, [64, 192, 1, 1]>(BLOBFILE(path = tensor<string, []>("@model_path/weights/weight.bin"), offset = tensor<uint64, []>(2840128)))];
            tensor<fp16, [64]> model_model_15_cv1_conv_bias_to_fp16 = const()[name = tensor<string, []>("model_model_15_cv1_conv_bias_to_fp16"), val = tensor<fp16, [64]>(BLOBFILE(path = tensor<string, []>("@model_path/weights/weight.bin"), offset = tensor<uint64, []>(2864768)))];
            tensor<fp16, [1, 64, 40, 40]> input_135_cast_fp16 = conv(bias = model_model_15_cv1_conv_bias_to_fp16, dilations = input_135_dilations_0, groups = input_135_groups_0, pad = input_135_pad_0, pad_type = input_135_pad_type_0, strides = input_135_strides_0, weight = model_model_15_cv1_conv_weight_to_fp16, x = input_133_cast_fp16)[name = tensor<string, []>("input_135_cast_fp16")];
            tensor<fp16, [1, 64, 40, 40]> var_446_cast_fp16 = silu(x = input_135_cast_fp16)[name = tensor<string, []>("op_446_cast_fp16")];
            tensor<int32, [2]> var_447 = const()[name = tensor<string, []>("op_447"), val = tensor<int32, [2]>([32, 32])];
            tensor<int32, []> var_448_axis_0 = const()[name = tensor<string, []>("op_448_axis_0"), val = tensor<int32, []>(1)];
            tensor<fp16, [1, 32, 40, 40]> var_448_cast_fp16_0, tensor<fp16, [1, 32, 40, 40]> var_448_cast_fp16_1 = split(axis = var_448_axis_0, split_sizes = var_447, x = var_446_cast_fp16)[name = tensor<string, []>("op_448_cast_fp16")];
            tensor<string, []> input_139_pad_type_0 = const()[name = tensor<string, []>("input_139_pad_type_0"), val = tensor<string, []>("custom")];
            tensor<int32, [4]> input_139_pad_0 = const()[name = tensor<string, []>("input_139_pad_0"), val = tensor<int32, [4]>([1, 1, 1, 1])];
            tensor<int32, [2]> input_139_strides_0 = const()[name = tensor<string, []>("input_139_strides_0"), val = tensor<int32, [2]>([1, 1])];
            tensor<int32, [2]> input_139_dilations_0 = const()[name = tensor<string, []>("input_139_dilations_0"), val = tensor<int32, [2]>([1, 1])];
            tensor<int32, []> input_139_groups_0 = const()[name = tensor<string, []>("input_139_groups_0"), val = tensor<int32, []>(1)];
            tensor<fp16, [32, 32, 3, 3]> model_model_15_m_0_cv1_conv_weight_to_fp16 = const()[name = tensor<string, []>("model_model_15_m_0_cv1_conv_weight_to_fp16"), val = tensor<fp16, [32, 32, 3, 3]>(BLOBFILE(path = tensor<string, []>("@model_path/weights/weight.bin"), offset = tensor<uint64, []>(2864960)))];
            tensor<fp16, [32]> model_model_15_m_0_cv1_conv_bias_to_fp16 = const()[name = tensor<string, []>("model_model_15_m_0_cv1_conv_bias_to_fp16"), val = tensor<fp16, [32]>(BLOBFILE(path = tensor<string, []>("@model_path/weights/weight.bin"), offset = tensor<uint64, []>(2883456)))];
            tensor<fp16, [1, 32, 40, 40]> input_139_cast_fp16 = conv(bias = model_model_15_m_0_cv1_conv_bias_to_fp16, dilations = input_139_dilations_0, groups = input_139_groups_0, pad = input_139_pad_0, pad_type = input_139_pad_type_0, strides = input_139_strides_0, weight = model_model_15_m_0_cv1_conv_weight_to_fp16, x = var_448_cast_fp16_1)[name = tensor<string, []>("input_139_cast_fp16")];
            tensor<fp16, [1, 32, 40, 40]> input_141_cast_fp16 = silu(x = input_139_cast_fp16)[name = tensor<string, []>("input_141_cast_fp16")];
            tensor<string, []> input_143_pad_type_0 = const()[name = tensor<string, []>("input_143_pad_type_0"), val = tensor<string, []>("custom")];
            tensor<int32, [4]> input_143_pad_0 = const()[name = tensor<string, []>("input_143_pad_0"), val = tensor<int32, [4]>([1, 1, 1, 1])];
            tensor<int32, [2]> input_143_strides_0 = const()[name = tensor<string, []>("input_143_strides_0"), val = tensor<int32, [2]>([1, 1])];
            tensor<int32, [2]> input_143_dilations_0 = const()[name = tensor<string, []>("input_143_dilations_0"), val = tensor<int32, [2]>([1, 1])];
            tensor<int32, []> input_143_groups_0 = const()[name = tensor<string, []>("input_143_groups_0"), val = tensor<int32, []>(1)];
            tensor<fp16, [32, 32, 3, 3]> model_model_15_m_0_cv2_conv_weight_to_fp16 = const()[name = tensor<string, []>("model_model_15_m_0_cv2_conv_weight_to_fp16"), val = tensor<fp16, [32, 32, 3, 3]>(BLOBFILE(path = tensor<string, []>("@model_path/weights/weight.bin"), offset = tensor<uint64, []>(2883584)))];
            tensor<fp16, [32]> model_model_15_m_0_cv2_conv_bias_to_fp16 = const()[name = tensor<string, []>("model_model_15_m_0_cv2_conv_bias_to_fp16"), val = tensor<fp16, [32]>(BLOBFILE(path = tensor<string, []>("@model_path/weights/weight.bin"), offset = tensor<uint64, []>(2902080)))];
            tensor<fp16, [1, 32, 40, 40]> input_143_cast_fp16 = conv(bias = model_model_15_m_0_cv2_conv_bias_to_fp16, dilations = input_143_dilations_0, groups = input_143_groups_0, pad = input_143_pad_0, pad_type = input_143_pad_type_0, strides = input_143_strides_0, weight = model_model_15_m_0_cv2_conv_weight_to_fp16, x = input_141_cast_fp16)[name = tensor<string, []>("input_143_cast_fp16")];
            tensor<fp16, [1, 32, 40, 40]> var_470_cast_fp16 = silu(x = input_143_cast_fp16)[name = tensor<string, []>("op_470_cast_fp16")];
            tensor<bool, []> input_145_interleave_0 = const()[name = tensor<string, []>("input_145_interleave_0"), val = tensor<bool, []>(false)];
            tensor<fp16, [1, 96, 40, 40]> input_145_cast_fp16 = concat(axis = var_18, interleave = input_145_interleave_0, values = (var_448_cast_fp16_0, var_448_cast_fp16_1, var_470_cast_fp16))[name = tensor<string, []>("input_145_cast_fp16")];
            tensor<string, []> input_147_pad_type_0 = const()[name = tensor<string, []>("input_147_pad_type_0"), val = tensor<string, []>("valid")];
            tensor<int32, [2]> input_147_strides_0 = const()[name = tensor<string, []>("input_147_strides_0"), val = tensor<int32, [2]>([1, 1])];
            tensor<int32, [4]> input_147_pad_0 = const()[name = tensor<string, []>("input_147_pad_0"), val = tensor<int32, [4]>([0, 0, 0, 0])];
            tensor<int32, [2]> input_147_dilations_0 = const()[name = tensor<string, []>("input_147_dilations_0"), val = tensor<int32, [2]>([1, 1])];
            tensor<int32, []> input_147_groups_0 = const()[name = tensor<string, []>("input_147_groups_0"), val = tensor<int32, []>(1)];
            tensor<fp16, [64, 96, 1, 1]> model_model_15_cv2_conv_weight_to_fp16 = const()[name = tensor<string, []>("model_model_15_cv2_conv_weight_to_fp16"), val = tensor<fp16, [64, 96, 1, 1]>(BLOBFILE(path = tensor<string, []>("@model_path/weights/weight.bin"), offset = tensor<uint64, []>(2902208)))];
            tensor<fp16, [64]> model_model_15_cv2_conv_bias_to_fp16 = const()[name = tensor<string, []>("model_model_15_cv2_conv_bias_to_fp16"), val = tensor<fp16, [64]>(BLOBFILE(path = tensor<string, []>("@model_path/weights/weight.bin"), offset = tensor<uint64, []>(2914560)))];
            tensor<fp16, [1, 64, 40, 40]> input_147_cast_fp16 = conv(bias = model_model_15_cv2_conv_bias_to_fp16, dilations = input_147_dilations_0, groups = input_147_groups_0, pad = input_147_pad_0, pad_type = input_147_pad_type_0, strides = input_147_strides_0, weight = model_model_15_cv2_conv_weight_to_fp16, x = input_145_cast_fp16)[name = tensor<string, []>("input_147_cast_fp16")];
            tensor<fp16, [1, 64, 40, 40]> input_149_cast_fp16 = silu(x = input_147_cast_fp16)[name = tensor<string, []>("input_149_cast_fp16")];
            tensor<string, []> input_151_pad_type_0 = const()[name = tensor<string, []>("input_151_pad_type_0"), val = tensor<string, []>("custom")];
            tensor<int32, [4]> input_151_pad_0 = const()[name = tensor<string, []>("input_151_pad_0"), val = tensor<int32, [4]>([1, 1, 1, 1])];
            tensor<int32, [2]> input_151_strides_0 = const()[name = tensor<string, []>("input_151_strides_0"), val = tensor<int32, [2]>([2, 2])];
            tensor<int32, [2]> input_151_dilations_0 = const()[name = tensor<string, []>("input_151_dilations_0"), val = tensor<int32, [2]>([1, 1])];
            tensor<int32, []> input_151_groups_0 = const()[name = tensor<string, []>("input_151_groups_0"), val = tensor<int32, []>(1)];
            tensor<fp16, [64, 64, 3, 3]> model_model_16_conv_weight_to_fp16 = const()[name = tensor<string, []>("model_model_16_conv_weight_to_fp16"), val = tensor<fp16, [64, 64, 3, 3]>(BLOBFILE(path = tensor<string, []>("@model_path/weights/weight.bin"), offset = tensor<uint64, []>(2914752)))];
            tensor<fp16, [64]> model_model_16_conv_bias_to_fp16 = const()[name = tensor<string, []>("model_model_16_conv_bias_to_fp16"), val = tensor<fp16, [64]>(BLOBFILE(path = tensor<string, []>("@model_path/weights/weight.bin"), offset = tensor<uint64, []>(2988544)))];
            tensor<fp16, [1, 64, 20, 20]> input_151_cast_fp16 = conv(bias = model_model_16_conv_bias_to_fp16, dilations = input_151_dilations_0, groups = input_151_groups_0, pad = input_151_pad_0, pad_type = input_151_pad_type_0, strides = input_151_strides_0, weight = model_model_16_conv_weight_to_fp16, x = input_149_cast_fp16)[name = tensor<string, []>("input_151_cast_fp16")];
            tensor<fp16, [1, 64, 20, 20]> var_490_cast_fp16 = silu(x = input_151_cast_fp16)[name = tensor<string, []>("op_490_cast_fp16")];
            tensor<bool, []> input_153_interleave_0 = const()[name = tensor<string, []>("input_153_interleave_0"), val = tensor<bool, []>(false)];
            tensor<fp16, [1, 192, 20, 20]> input_153_cast_fp16 = concat(axis = var_18, interleave = input_153_interleave_0, values = (var_490_cast_fp16, input_131_cast_fp16))[name = tensor<string, []>("input_153_cast_fp16")];
            tensor<string, []> input_155_pad_type_0 = const()[name = tensor<string, []>("input_155_pad_type_0"), val = tensor<string, []>("valid")];
            tensor<int32, [2]> input_155_strides_0 = const()[name = tensor<string, []>("input_155_strides_0"), val = tensor<int32, [2]>([1, 1])];
            tensor<int32, [4]> input_155_pad_0 = const()[name = tensor<string, []>("input_155_pad_0"), val = tensor<int32, [4]>([0, 0, 0, 0])];
            tensor<int32, [2]> input_155_dilations_0 = const()[name = tensor<string, []>("input_155_dilations_0"), val = tensor<int32, [2]>([1, 1])];
            tensor<int32, []> input_155_groups_0 = const()[name = tensor<string, []>("input_155_groups_0"), val = tensor<int32, []>(1)];
            tensor<fp16, [128, 192, 1, 1]> model_model_18_cv1_conv_weight_to_fp16 = const()[name = tensor<string, []>("model_model_18_cv1_conv_weight_to_fp16"), val = tensor<fp16, [128, 192, 1, 1]>(BLOBFILE(path = tensor<string, []>("@model_path/weights/weight.bin"), offset = tensor<uint64, []>(2988736)))];
            tensor<fp16, [128]> model_model_18_cv1_conv_bias_to_fp16 = const()[name = tensor<string, []>("model_model_18_cv1_conv_bias_to_fp16"), val = tensor<fp16, [128]>(BLOBFILE(path = tensor<string, []>("@model_path/weights/weight.bin"), offset = tensor<uint64, []>(3037952)))];
            tensor<fp16, [1, 128, 20, 20]> input_155_cast_fp16 = conv(bias = model_model_18_cv1_conv_bias_to_fp16, dilations = input_155_dilations_0, groups = input_155_groups_0, pad = input_155_pad_0, pad_type = input_155_pad_type_0, strides = input_155_strides_0, weight = model_model_18_cv1_conv_weight_to_fp16, x = input_153_cast_fp16)[name = tensor<string, []>("input_155_cast_fp16")];
            tensor<fp16, [1, 128, 20, 20]> var_505_cast_fp16 = silu(x = input_155_cast_fp16)[name = tensor<string, []>("op_505_cast_fp16")];
            tensor<int32, [2]> var_506 = const()[name = tensor<string, []>("op_506"), val = tensor<int32, [2]>([64, 64])];
            tensor<int32, []> var_507_axis_0 = const()[name = tensor<string, []>("op_507_axis_0"), val = tensor<int32, []>(1)];
            tensor<fp16, [1, 64, 20, 20]> var_507_cast_fp16_0, tensor<fp16, [1, 64, 20, 20]> var_507_cast_fp16_1 = split(axis = var_507_axis_0, split_sizes = var_506, x = var_505_cast_fp16)[name = tensor<string, []>("op_507_cast_fp16")];
            tensor<string, []> input_159_pad_type_0 = const()[name = tensor<string, []>("input_159_pad_type_0"), val = tensor<string, []>("custom")];
            tensor<int32, [4]> input_159_pad_0 = const()[name = tensor<string, []>("input_159_pad_0"), val = tensor<int32, [4]>([1, 1, 1, 1])];
            tensor<int32, [2]> input_159_strides_0 = const()[name = tensor<string, []>("input_159_strides_0"), val = tensor<int32, [2]>([1, 1])];
            tensor<int32, [2]> input_159_dilations_0 = const()[name = tensor<string, []>("input_159_dilations_0"), val = tensor<int32, [2]>([1, 1])];
            tensor<int32, []> input_159_groups_0 = const()[name = tensor<string, []>("input_159_groups_0"), val = tensor<int32, []>(1)];
            tensor<fp16, [64, 64, 3, 3]> model_model_18_m_0_cv1_conv_weight_to_fp16 = const()[name = tensor<string, []>("model_model_18_m_0_cv1_conv_weight_to_fp16"), val = tensor<fp16, [64, 64, 3, 3]>(BLOBFILE(path = tensor<string, []>("@model_path/weights/weight.bin"), offset = tensor<uint64, []>(3038272)))];
            tensor<fp16, [64]> model_model_18_m_0_cv1_conv_bias_to_fp16 = const()[name = tensor<string, []>("model_model_18_m_0_cv1_conv_bias_to_fp16"), val = tensor<fp16, [64]>(BLOBFILE(path = tensor<string, []>("@model_path/weights/weight.bin"), offset = tensor<uint64, []>(3112064)))];
            tensor<fp16, [1, 64, 20, 20]> input_159_cast_fp16 = conv(bias = model_model_18_m_0_cv1_conv_bias_to_fp16, dilations = input_159_dilations_0, groups = input_159_groups_0, pad = input_159_pad_0, pad_type = input_159_pad_type_0, strides = input_159_strides_0, weight = model_model_18_m_0_cv1_conv_weight_to_fp16, x = var_507_cast_fp16_1)[name = tensor<string, []>("input_159_cast_fp16")];
            tensor<fp16, [1, 64, 20, 20]> input_161_cast_fp16 = silu(x = input_159_cast_fp16)[name = tensor<string, []>("input_161_cast_fp16")];
            tensor<string, []> input_163_pad_type_0 = const()[name = tensor<string, []>("input_163_pad_type_0"), val = tensor<string, []>("custom")];
            tensor<int32, [4]> input_163_pad_0 = const()[name = tensor<string, []>("input_163_pad_0"), val = tensor<int32, [4]>([1, 1, 1, 1])];
            tensor<int32, [2]> input_163_strides_0 = const()[name = tensor<string, []>("input_163_strides_0"), val = tensor<int32, [2]>([1, 1])];
            tensor<int32, [2]> input_163_dilations_0 = const()[name = tensor<string, []>("input_163_dilations_0"), val = tensor<int32, [2]>([1, 1])];
            tensor<int32, []> input_163_groups_0 = const()[name = tensor<string, []>("input_163_groups_0"), val = tensor<int32, []>(1)];
            tensor<fp16, [64, 64, 3, 3]> model_model_18_m_0_cv2_conv_weight_to_fp16 = const()[name = tensor<string, []>("model_model_18_m_0_cv2_conv_weight_to_fp16"), val = tensor<fp16, [64, 64, 3, 3]>(BLOBFILE(path = tensor<string, []>("@model_path/weights/weight.bin"), offset = tensor<uint64, []>(3112256)))];
            tensor<fp16, [64]> model_model_18_m_0_cv2_conv_bias_to_fp16 = const()[name = tensor<string, []>("model_model_18_m_0_cv2_conv_bias_to_fp16"), val = tensor<fp16, [64]>(BLOBFILE(path = tensor<string, []>("@model_path/weights/weight.bin"), offset = tensor<uint64, []>(3186048)))];
            tensor<fp16, [1, 64, 20, 20]> input_163_cast_fp16 = conv(bias = model_model_18_m_0_cv2_conv_bias_to_fp16, dilations = input_163_dilations_0, groups = input_163_groups_0, pad = input_163_pad_0, pad_type = input_163_pad_type_0, strides = input_163_strides_0, weight = model_model_18_m_0_cv2_conv_weight_to_fp16, x = input_161_cast_fp16)[name = tensor<string, []>("input_163_cast_fp16")];
            tensor<fp16, [1, 64, 20, 20]> var_529_cast_fp16 = silu(x = input_163_cast_fp16)[name = tensor<string, []>("op_529_cast_fp16")];
            tensor<bool, []> input_165_interleave_0 = const()[name = tensor<string, []>("input_165_interleave_0"), val = tensor<bool, []>(false)];
            tensor<fp16, [1, 192, 20, 20]> input_165_cast_fp16 = concat(axis = var_18, interleave = input_165_interleave_0, values = (var_507_cast_fp16_0, var_507_cast_fp16_1, var_529_cast_fp16))[name = tensor<string, []>("input_165_cast_fp16")];
            tensor<string, []> input_167_pad_type_0 = const()[name = tensor<string, []>("input_167_pad_type_0"), val = tensor<string, []>("valid")];
            tensor<int32, [2]> input_167_strides_0 = const()[name = tensor<string, []>("input_167_strides_0"), val = tensor<int32, [2]>([1, 1])];
            tensor<int32, [4]> input_167_pad_0 = const()[name = tensor<string, []>("input_167_pad_0"), val = tensor<int32, [4]>([0, 0, 0, 0])];
            tensor<int32, [2]> input_167_dilations_0 = const()[name = tensor<string, []>("input_167_dilations_0"), val = tensor<int32, [2]>([1, 1])];
            tensor<int32, []> input_167_groups_0 = const()[name = tensor<string, []>("input_167_groups_0"), val = tensor<int32, []>(1)];
            tensor<fp16, [128, 192, 1, 1]> model_model_18_cv2_conv_weight_to_fp16 = const()[name = tensor<string, []>("model_model_18_cv2_conv_weight_to_fp16"), val = tensor<fp16, [128, 192, 1, 1]>(BLOBFILE(path = tensor<string, []>("@model_path/weights/weight.bin"), offset = tensor<uint64, []>(3186240)))];
            tensor<fp16, [128]> model_model_18_cv2_conv_bias_to_fp16 = const()[name = tensor<string, []>("model_model_18_cv2_conv_bias_to_fp16"), val = tensor<fp16, [128]>(BLOBFILE(path = tensor<string, []>("@model_path/weights/weight.bin"), offset = tensor<uint64, []>(3235456)))];
            tensor<fp16, [1, 128, 20, 20]> input_167_cast_fp16 = conv(bias = model_model_18_cv2_conv_bias_to_fp16, dilations = input_167_dilations_0, groups = input_167_groups_0, pad = input_167_pad_0, pad_type = input_167_pad_type_0, strides = input_167_strides_0, weight = model_model_18_cv2_conv_weight_to_fp16, x = input_165_cast_fp16)[name = tensor<string, []>("input_167_cast_fp16")];
            tensor<fp16, [1, 128, 20, 20]> input_169_cast_fp16 = silu(x = input_167_cast_fp16)[name = tensor<string, []>("input_169_cast_fp16")];
            tensor<string, []> input_171_pad_type_0 = const()[name = tensor<string, []>("input_171_pad_type_0"), val = tensor<string, []>("custom")];
            tensor<int32, [4]> input_171_pad_0 = const()[name = tensor<string, []>("input_171_pad_0"), val = tensor<int32, [4]>([1, 1, 1, 1])];
            tensor<int32, [2]> input_171_strides_0 = const()[name = tensor<string, []>("input_171_strides_0"), val = tensor<int32, [2]>([2, 2])];
            tensor<int32, [2]> input_171_dilations_0 = const()[name = tensor<string, []>("input_171_dilations_0"), val = tensor<int32, [2]>([1, 1])];
            tensor<int32, []> input_171_groups_0 = const()[name = tensor<string, []>("input_171_groups_0"), val = tensor<int32, []>(1)];
            tensor<fp16, [128, 128, 3, 3]> model_model_19_conv_weight_to_fp16 = const()[name = tensor<string, []>("model_model_19_conv_weight_to_fp16"), val = tensor<fp16, [128, 128, 3, 3]>(BLOBFILE(path = tensor<string, []>("@model_path/weights/weight.bin"), offset = tensor<uint64, []>(3235776)))];
            tensor<fp16, [128]> model_model_19_conv_bias_to_fp16 = const()[name = tensor<string, []>("model_model_19_conv_bias_to_fp16"), val = tensor<fp16, [128]>(BLOBFILE(path = tensor<string, []>("@model_path/weights/weight.bin"), offset = tensor<uint64, []>(3530752)))];
            tensor<fp16, [1, 128, 10, 10]> input_171_cast_fp16 = conv(bias = model_model_19_conv_bias_to_fp16, dilations = input_171_dilations_0, groups = input_171_groups_0, pad = input_171_pad_0, pad_type = input_171_pad_type_0, strides = input_171_strides_0, weight = model_model_19_conv_weight_to_fp16, x = input_169_cast_fp16)[name = tensor<string, []>("input_171_cast_fp16")];
            tensor<fp16, [1, 128, 10, 10]> var_549_cast_fp16 = silu(x = input_171_cast_fp16)[name = tensor<string, []>("op_549_cast_fp16")];
            tensor<bool, []> input_173_interleave_0 = const()[name = tensor<string, []>("input_173_interleave_0"), val = tensor<bool, []>(false)];
            tensor<fp16, [1, 384, 10, 10]> input_173_cast_fp16 = concat(axis = var_18, interleave = input_173_interleave_0, values = (var_549_cast_fp16, input_113_cast_fp16))[name = tensor<string, []>("input_173_cast_fp16")];
            tensor<string, []> input_175_pad_type_0 = const()[name = tensor<string, []>("input_175_pad_type_0"), val = tensor<string, []>("valid")];
            tensor<int32, [2]> input_175_strides_0 = const()[name = tensor<string, []>("input_175_strides_0"), val = tensor<int32, [2]>([1, 1])];
            tensor<int32, [4]> input_175_pad_0 = const()[name = tensor<string, []>("input_175_pad_0"), val = tensor<int32, [4]>([0, 0, 0, 0])];
            tensor<int32, [2]> input_175_dilations_0 = const()[name = tensor<string, []>("input_175_dilations_0"), val = tensor<int32, [2]>([1, 1])];
            tensor<int32, []> input_175_groups_0 = const()[name = tensor<string, []>("input_175_groups_0"), val = tensor<int32, []>(1)];
            tensor<fp16, [256, 384, 1, 1]> model_model_21_cv1_conv_weight_to_fp16 = const()[name = tensor<string, []>("model_model_21_cv1_conv_weight_to_fp16"), val = tensor<fp16, [256, 384, 1, 1]>(BLOBFILE(path = tensor<string, []>("@model_path/weights/weight.bin"), offset = tensor<uint64, []>(3531072)))];
            tensor<fp16, [256]> model_model_21_cv1_conv_bias_to_fp16 = const()[name = tensor<string, []>("model_model_21_cv1_conv_bias_to_fp16"), val = tensor<fp16, [256]>(BLOBFILE(path = tensor<string, []>("@model_path/weights/weight.bin"), offset = tensor<uint64, []>(3727744)))];
            tensor<fp16, [1, 256, 10, 10]> input_175_cast_fp16 = conv(bias = model_model_21_cv1_conv_bias_to_fp16, dilations = input_175_dilations_0, groups = input_175_groups_0, pad = input_175_pad_0, pad_type = input_175_pad_type_0, strides = input_175_strides_0, weight = model_model_21_cv1_conv_weight_to_fp16, x = input_173_cast_fp16)[name = tensor<string, []>("input_175_cast_fp16")];
            tensor<fp16, [1, 256, 10, 10]> var_564_cast_fp16 = silu(x = input_175_cast_fp16)[name = tensor<string, []>("op_564_cast_fp16")];
            tensor<int32, [2]> var_565 = const()[name = tensor<string, []>("op_565"), val = tensor<int32, [2]>([128, 128])];
            tensor<int32, []> var_566_axis_0 = const()[name = tensor<string, []>("op_566_axis_0"), val = tensor<int32, []>(1)];
            tensor<fp16, [1, 128, 10, 10]> var_566_cast_fp16_0, tensor<fp16, [1, 128, 10, 10]> var_566_cast_fp16_1 = split(axis = var_566_axis_0, split_sizes = var_565, x = var_564_cast_fp16)[name = tensor<string, []>("op_566_cast_fp16")];
            tensor<string, []> input_179_pad_type_0 = const()[name = tensor<string, []>("input_179_pad_type_0"), val = tensor<string, []>("custom")];
            tensor<int32, [4]> input_179_pad_0 = const()[name = tensor<string, []>("input_179_pad_0"), val = tensor<int32, [4]>([1, 1, 1, 1])];
            tensor<int32, [2]> input_179_strides_0 = const()[name = tensor<string, []>("input_179_strides_0"), val = tensor<int32, [2]>([1, 1])];
            tensor<int32, [2]> input_179_dilations_0 = const()[name = tensor<string, []>("input_179_dilations_0"), val = tensor<int32, [2]>([1, 1])];
            tensor<int32, []> input_179_groups_0 = const()[name = tensor<string, []>("input_179_groups_0"), val = tensor<int32, []>(1)];
            tensor<fp16, [128, 128, 3, 3]> model_model_21_m_0_cv1_conv_weight_to_fp16 = const()[name = tensor<string, []>("model_model_21_m_0_cv1_conv_weight_to_fp16"), val = tensor<fp16, [128, 128, 3, 3]>(BLOBFILE(path = tensor<string, []>("@model_path/weights/weight.bin"), offset = tensor<uint64, []>(3728320)))];
            tensor<fp16, [128]> model_model_21_m_0_cv1_conv_bias_to_fp16 = const()[name = tensor<string, []>("model_model_21_m_0_cv1_conv_bias_to_fp16"), val = tensor<fp16, [128]>(BLOBFILE(path = tensor<string, []>("@model_path/weights/weight.bin"), offset = tensor<uint64, []>(4023296)))];
            tensor<fp16, [1, 128, 10, 10]> input_179_cast_fp16 = conv(bias = model_model_21_m_0_cv1_conv_bias_to_fp16, dilations = input_179_dilations_0, groups = input_179_groups_0, pad = input_179_pad_0, pad_type = input_179_pad_type_0, strides = input_179_strides_0, weight = model_model_21_m_0_cv1_conv_weight_to_fp16, x = var_566_cast_fp16_1)[name = tensor<string, []>("input_179_cast_fp16")];
            tensor<fp16, [1, 128, 10, 10]> input_181_cast_fp16 = silu(x = input_179_cast_fp16)[name = tensor<string, []>("input_181_cast_fp16")];
            tensor<string, []> input_183_pad_type_0 = const()[name = tensor<string, []>("input_183_pad_type_0"), val = tensor<string, []>("custom")];
            tensor<int32, [4]> input_183_pad_0 = const()[name = tensor<string, []>("input_183_pad_0"), val = tensor<int32, [4]>([1, 1, 1, 1])];
            tensor<int32, [2]> input_183_strides_0 = const()[name = tensor<string, []>("input_183_strides_0"), val = tensor<int32, [2]>([1, 1])];
            tensor<int32, [2]> input_183_dilations_0 = const()[name = tensor<string, []>("input_183_dilations_0"), val = tensor<int32, [2]>([1, 1])];
            tensor<int32, []> input_183_groups_0 = const()[name = tensor<string, []>("input_183_groups_0"), val = tensor<int32, []>(1)];
            tensor<fp16, [128, 128, 3, 3]> model_model_21_m_0_cv2_conv_weight_to_fp16 = const()[name = tensor<string, []>("model_model_21_m_0_cv2_conv_weight_to_fp16"), val = tensor<fp16, [128, 128, 3, 3]>(BLOBFILE(path = tensor<string, []>("@model_path/weights/weight.bin"), offset = tensor<uint64, []>(4023616)))];
            tensor<fp16, [128]> model_model_21_m_0_cv2_conv_bias_to_fp16 = const()[name = tensor<string, []>("model_model_21_m_0_cv2_conv_bias_to_fp16"), val = tensor<fp16, [128]>(BLOBFILE(path = tensor<string, []>("@model_path/weights/weight.bin"), offset = tensor<uint64, []>(4318592)))];
            tensor<fp16, [1, 128, 10, 10]> input_183_cast_fp16 = conv(bias = model_model_21_m_0_cv2_conv_bias_to_fp16, dilations = input_183_dilations_0, groups = input_183_groups_0, pad = input_183_pad_0, pad_type = input_183_pad_type_0, strides = input_183_strides_0, weight = model_model_21_m_0_cv2_conv_weight_to_fp16, x = input_181_cast_fp16)[name = tensor<string, []>("input_183_cast_fp16")];
            tensor<fp16, [1, 128, 10, 10]> var_588_cast_fp16 = silu(x = input_183_cast_fp16)[name = tensor<string, []>("op_588_cast_fp16")];
            tensor<bool, []> input_185_interleave_0 = const()[name = tensor<string, []>("input_185_interleave_0"), val = tensor<bool, []>(false)];
            tensor<fp16, [1, 384, 10, 10]> input_185_cast_fp16 = concat(axis = var_18, interleave = input_185_interleave_0, values = (var_566_cast_fp16_0, var_566_cast_fp16_1, var_588_cast_fp16))[name = tensor<string, []>("input_185_cast_fp16")];
            tensor<string, []> input_187_pad_type_0 = const()[name = tensor<string, []>("input_187_pad_type_0"), val = tensor<string, []>("valid")];
            tensor<int32, [2]> input_187_strides_0 = const()[name = tensor<string, []>("input_187_strides_0"), val = tensor<int32, [2]>([1, 1])];
            tensor<int32, [4]> input_187_pad_0 = const()[name = tensor<string, []>("input_187_pad_0"), val = tensor<int32, [4]>([0, 0, 0, 0])];
            tensor<int32, [2]> input_187_dilations_0 = const()[name = tensor<string, []>("input_187_dilations_0"), val = tensor<int32, [2]>([1, 1])];
            tensor<int32, []> input_187_groups_0 = const()[name = tensor<string, []>("input_187_groups_0"), val = tensor<int32, []>(1)];
            tensor<fp16, [256, 384, 1, 1]> model_model_21_cv2_conv_weight_to_fp16 = const()[name = tensor<string, []>("model_model_21_cv2_conv_weight_to_fp16"), val = tensor<fp16, [256, 384, 1, 1]>(BLOBFILE(path = tensor<string, []>("@model_path/weights/weight.bin"), offset = tensor<uint64, []>(4318912)))];
            tensor<fp16, [256]> model_model_21_cv2_conv_bias_to_fp16 = const()[name = tensor<string, []>("model_model_21_cv2_conv_bias_to_fp16"), val = tensor<fp16, [256]>(BLOBFILE(path = tensor<string, []>("@model_path/weights/weight.bin"), offset = tensor<uint64, []>(4515584)))];
            tensor<fp16, [1, 256, 10, 10]> input_187_cast_fp16 = conv(bias = model_model_21_cv2_conv_bias_to_fp16, dilations = input_187_dilations_0, groups = input_187_groups_0, pad = input_187_pad_0, pad_type = input_187_pad_type_0, strides = input_187_strides_0, weight = model_model_21_cv2_conv_weight_to_fp16, x = input_185_cast_fp16)[name = tensor<string, []>("input_187_cast_fp16")];
            tensor<fp16, [1, 256, 10, 10]> input_205_cast_fp16 = silu(x = input_187_cast_fp16)[name = tensor<string, []>("input_205_cast_fp16")];
            tensor<string, []> input_189_pad_type_0 = const()[name = tensor<string, []>("input_189_pad_type_0"), val = tensor<string, []>("custom")];
            tensor<int32, [4]> input_189_pad_0 = const()[name = tensor<string, []>("input_189_pad_0"), val = tensor<int32, [4]>([1, 1, 1, 1])];
            tensor<int32, [2]> input_189_strides_0 = const()[name = tensor<string, []>("input_189_strides_0"), val = tensor<int32, [2]>([1, 1])];
            tensor<int32, [2]> input_189_dilations_0 = const()[name = tensor<string, []>("input_189_dilations_0"), val = tensor<int32, [2]>([1, 1])];
            tensor<int32, []> input_189_groups_0 = const()[name = tensor<string, []>("input_189_groups_0"), val = tensor<int32, []>(1)];
            tensor<fp16, [64, 64, 3, 3]> model_model_22_cv2_0_0_conv_weight_to_fp16 = const()[name = tensor<string, []>("model_model_22_cv2_0_0_conv_weight_to_fp16"), val = tensor<fp16, [64, 64, 3, 3]>(BLOBFILE(path = tensor<string, []>("@model_path/weights/weight.bin"), offset = tensor<uint64, []>(4516160)))];
            tensor<fp16, [64]> model_model_22_cv2_0_0_conv_bias_to_fp16 = const()[name = tensor<string, []>("model_model_22_cv2_0_0_conv_bias_to_fp16"), val = tensor<fp16, [64]>(BLOBFILE(path = tensor<string, []>("@model_path/weights/weight.bin"), offset = tensor<uint64, []>(4589952)))];
            tensor<fp16, [1, 64, 40, 40]> input_189_cast_fp16 = conv(bias = model_model_22_cv2_0_0_conv_bias_to_fp16, dilations = input_189_dilations_0, groups = input_189_groups_0, pad = input_189_pad_0, pad_type = input_189_pad_type_0, strides = input_189_strides_0, weight = model_model_22_cv2_0_0_conv_weight_to_fp16, x = input_149_cast_fp16)[name = tensor<string, []>("input_189_cast_fp16")];
            tensor<fp16, [1, 64, 40, 40]> input_191_cast_fp16 = silu(x = input_189_cast_fp16)[name = tensor<string, []>("input_191_cast_fp16")];
            tensor<string, []> input_193_pad_type_0 = const()[name = tensor<string, []>("input_193_pad_type_0"), val = tensor<string, []>("custom")];
            tensor<int32, [4]> input_193_pad_0 = const()[name = tensor<string, []>("input_193_pad_0"), val = tensor<int32, [4]>([1, 1, 1, 1])];
            tensor<int32, [2]> input_193_strides_0 = const()[name = tensor<string, []>("input_193_strides_0"), val = tensor<int32, [2]>([1, 1])];
            tensor<int32, [2]> input_193_dilations_0 = const()[name = tensor<string, []>("input_193_dilations_0"), val = tensor<int32, [2]>([1, 1])];
            tensor<int32, []> input_193_groups_0 = const()[name = tensor<string, []>("input_193_groups_0"), val = tensor<int32, []>(1)];
            tensor<fp16, [64, 64, 3, 3]> model_model_22_cv2_0_1_conv_weight_to_fp16 = const()[name = tensor<string, []>("model_model_22_cv2_0_1_conv_weight_to_fp16"), val = tensor<fp16, [64, 64, 3, 3]>(BLOBFILE(path = tensor<string, []>("@model_path/weights/weight.bin"), offset = tensor<uint64, []>(4590144)))];
            tensor<fp16, [64]> model_model_22_cv2_0_1_conv_bias_to_fp16 = const()[name = tensor<string, []>("model_model_22_cv2_0_1_conv_bias_to_fp16"), val = tensor<fp16, [64]>(BLOBFILE(path = tensor<string, []>("@model_path/weights/weight.bin"), offset = tensor<uint64, []>(4663936)))];
            tensor<fp16, [1, 64, 40, 40]> input_193_cast_fp16 = conv(bias = model_model_22_cv2_0_1_conv_bias_to_fp16, dilations = input_193_dilations_0, groups = input_193_groups_0, pad = input_193_pad_0, pad_type = input_193_pad_type_0, strides = input_193_strides_0, weight = model_model_22_cv2_0_1_conv_weight_to_fp16, x = input_191_cast_fp16)[name = tensor<string, []>("input_193_cast_fp16")];
            tensor<fp16, [1, 64, 40, 40]> input_195_cast_fp16 = silu(x = input_193_cast_fp16)[name = tensor<string, []>("input_195_cast_fp16")];
            tensor<string, []> var_641_pad_type_0 = const()[name = tensor<string, []>("op_641_pad_type_0"), val = tensor<string, []>("valid")];
            tensor<int32, [2]> var_641_strides_0 = const()[name = tensor<string, []>("op_641_strides_0"), val = tensor<int32, [2]>([1, 1])];
            tensor<int32, [4]> var_641_pad_0 = const()[name = tensor<string, []>("op_641_pad_0"), val = tensor<int32, [4]>([0, 0, 0, 0])];
            tensor<int32, [2]> var_641_dilations_0 = const()[name = tensor<string, []>("op_641_dilations_0"), val = tensor<int32, [2]>([1, 1])];
            tensor<int32, []> var_641_groups_0 = const()[name = tensor<string, []>("op_641_groups_0"), val = tensor<int32, []>(1)];
            tensor<fp16, [64, 64, 1, 1]> model_model_22_cv2_0_2_weight_to_fp16 = const()[name = tensor<string, []>("model_model_22_cv2_0_2_weight_to_fp16"), val = tensor<fp16, [64, 64, 1, 1]>(BLOBFILE(path = tensor<string, []>("@model_path/weights/weight.bin"), offset = tensor<uint64, []>(4664128)))];
            tensor<fp16, [64]> model_model_22_cv2_0_2_bias_to_fp16 = const()[name = tensor<string, []>("model_model_22_cv2_0_2_bias_to_fp16"), val = tensor<fp16, [64]>(BLOBFILE(path = tensor<string, []>("@model_path/weights/weight.bin"), offset = tensor<uint64, []>(4672384)))];
            tensor<fp16, [1, 64, 40, 40]> var_641_cast_fp16 = conv(bias = model_model_22_cv2_0_2_bias_to_fp16, dilations = var_641_dilations_0, groups = var_641_groups_0, pad = var_641_pad_0, pad_type = var_641_pad_type_0, strides = var_641_strides_0, weight = model_model_22_cv2_0_2_weight_to_fp16, x = input_195_cast_fp16)[name = tensor<string, []>("op_641_cast_fp16")];
            tensor<int32, [3]> var_642 = const()[name = tensor<string, []>("op_642"), val = tensor<int32, [3]>([1, 64, -1])];
            tensor<fp16, [1, 64, 1600]> var_643_cast_fp16 = reshape(shape = var_642, x = var_641_cast_fp16)[name = tensor<string, []>("op_643_cast_fp16")];
            tensor<string, []> input_197_pad_type_0 = const()[name = tensor<string, []>("input_197_pad_type_0"), val = tensor<string, []>("custom")];
            tensor<int32, [4]> input_197_pad_0 = const()[name = tensor<string, []>("input_197_pad_0"), val = tensor<int32, [4]>([1, 1, 1, 1])];
            tensor<int32, [2]> input_197_strides_0 = const()[name = tensor<string, []>("input_197_strides_0"), val = tensor<int32, [2]>([1, 1])];
            tensor<int32, [2]> input_197_dilations_0 = const()[name = tensor<string, []>("input_197_dilations_0"), val = tensor<int32, [2]>([1, 1])];
            tensor<int32, []> input_197_groups_0 = const()[name = tensor<string, []>("input_197_groups_0"), val = tensor<int32, []>(1)];
            tensor<fp16, [64, 128, 3, 3]> model_model_22_cv2_1_0_conv_weight_to_fp16 = const()[name = tensor<string, []>("model_model_22_cv2_1_0_conv_weight_to_fp16"), val = tensor<fp16, [64, 128, 3, 3]>(BLOBFILE(path = tensor<string, []>("@model_path/weights/weight.bin"), offset = tensor<uint64, []>(4672576)))];
            tensor<fp16, [64]> model_model_22_cv2_1_0_conv_bias_to_fp16 = const()[name = tensor<string, []>("model_model_22_cv2_1_0_conv_bias_to_fp16"), val = tensor<fp16, [64]>(BLOBFILE(path = tensor<string, []>("@model_path/weights/weight.bin"), offset = tensor<uint64, []>(4820096)))];
            tensor<fp16, [1, 64, 20, 20]> input_197_cast_fp16 = conv(bias = model_model_22_cv2_1_0_conv_bias_to_fp16, dilations = input_197_dilations_0, groups = input_197_groups_0, pad = input_197_pad_0, pad_type = input_197_pad_type_0, strides = input_197_strides_0, weight = model_model_22_cv2_1_0_conv_weight_to_fp16, x = input_169_cast_fp16)[name = tensor<string, []>("input_197_cast_fp16")];
            tensor<fp16, [1, 64, 20, 20]> input_199_cast_fp16 = silu(x = input_197_cast_fp16)[name = tensor<string, []>("input_199_cast_fp16")];
            tensor<string, []> input_201_pad_type_0 = const()[name = tensor<string, []>("input_201_pad_type_0"), val = tensor<string, []>("custom")];
            tensor<int32, [4]> input_201_pad_0 = const()[name = tensor<string, []>("input_201_pad_0"), val = tensor<int32, [4]>([1, 1, 1, 1])];
            tensor<int32, [2]> input_201_strides_0 = const()[name = tensor<string, []>("input_201_strides_0"), val = tensor<int32, [2]>([1, 1])];
            tensor<int32, [2]> input_201_dilations_0 = const()[name = tensor<string, []>("input_201_dilations_0"), val = tensor<int32, [2]>([1, 1])];
            tensor<int32, []> input_201_groups_0 = const()[name = tensor<string, []>("input_201_groups_0"), val = tensor<int32, []>(1)];
            tensor<fp16, [64, 64, 3, 3]> model_model_22_cv2_1_1_conv_weight_to_fp16 = const()[name = tensor<string, []>("model_model_22_cv2_1_1_conv_weight_to_fp16"), val = tensor<fp16, [64, 64, 3, 3]>(BLOBFILE(path = tensor<string, []>("@model_path/weights/weight.bin"), offset = tensor<uint64, []>(4820288)))];
            tensor<fp16, [64]> model_model_22_cv2_1_1_conv_bias_to_fp16 = const()[name = tensor<string, []>("model_model_22_cv2_1_1_conv_bias_to_fp16"), val = tensor<fp16, [64]>(BLOBFILE(path = tensor<string, []>("@model_path/weights/weight.bin"), offset = tensor<uint64, []>(4894080)))];
            tensor<fp16, [1, 64, 20, 20]> input_201_cast_fp16 = conv(bias = model_model_22_cv2_1_1_conv_bias_to_fp16, dilations = input_201_dilations_0, groups = input_201_groups_0, pad = input_201_pad_0, pad_type = input_201_pad_type_0, strides = input_201_strides_0, weight = model_model_22_cv2_1_1_conv_weight_to_fp16, x = input_199_cast_fp16)[name = tensor<string, []>("input_201_cast_fp16")];
            tensor<fp16, [1, 64, 20, 20]> input_203_cast_fp16 = silu(x = input_201_cast_fp16)[name = tensor<string, []>("input_203_cast_fp16")];
            tensor<string, []> var_671_pad_type_0 = const()[name = tensor<string, []>("op_671_pad_type_0"), val = tensor<string, []>("valid")];
            tensor<int32, [2]> var_671_strides_0 = const()[name = tensor<string, []>("op_671_strides_0"), val = tensor<int32, [2]>([1, 1])];
            tensor<int32, [4]> var_671_pad_0 = const()[name = tensor<string, []>("op_671_pad_0"), val = tensor<int32, [4]>([0, 0, 0, 0])];
            tensor<int32, [2]> var_671_dilations_0 = const()[name = tensor<string, []>("op_671_dilations_0"), val = tensor<int32, [2]>([1, 1])];
            tensor<int32, []> var_671_groups_0 = const()[name = tensor<string, []>("op_671_groups_0"), val = tensor<int32, []>(1)];
            tensor<fp16, [64, 64, 1, 1]> model_model_22_cv2_1_2_weight_to_fp16 = const()[name = tensor<string, []>("model_model_22_cv2_1_2_weight_to_fp16"), val = tensor<fp16, [64, 64, 1, 1]>(BLOBFILE(path = tensor<string, []>("@model_path/weights/weight.bin"), offset = tensor<uint64, []>(4894272)))];
            tensor<fp16, [64]> model_model_22_cv2_1_2_bias_to_fp16 = const()[name = tensor<string, []>("model_model_22_cv2_1_2_bias_to_fp16"), val = tensor<fp16, [64]>(BLOBFILE(path = tensor<string, []>("@model_path/weights/weight.bin"), offset = tensor<uint64, []>(4902528)))];
            tensor<fp16, [1, 64, 20, 20]> var_671_cast_fp16 = conv(bias = model_model_22_cv2_1_2_bias_to_fp16, dilations = var_671_dilations_0, groups = var_671_groups_0, pad = var_671_pad_0, pad_type = var_671_pad_type_0, strides = var_671_strides_0, weight = model_model_22_cv2_1_2_weight_to_fp16, x = input_203_cast_fp16)[name = tensor<string, []>("op_671_cast_fp16")];
            tensor<int32, [3]> var_672 = const()[name = tensor<string, []>("op_672"), val = tensor<int32, [3]>([1, 64, -1])];
            tensor<fp16, [1, 64, 400]> var_673_cast_fp16 = reshape(shape = var_672, x = var_671_cast_fp16)[name = tensor<string, []>("op_673_cast_fp16")];
            tensor<string, []> input_207_pad_type_0 = const()[name = tensor<string, []>("input_207_pad_type_0"), val = tensor<string, []>("custom")];
            tensor<int32, [4]> input_207_pad_0 = const()[name = tensor<string, []>("input_207_pad_0"), val = tensor<int32, [4]>([1, 1, 1, 1])];
            tensor<int32, [2]> input_207_strides_0 = const()[name = tensor<string, []>("input_207_strides_0"), val = tensor<int32, [2]>([1, 1])];
            tensor<int32, [2]> input_207_dilations_0 = const()[name = tensor<string, []>("input_207_dilations_0"), val = tensor<int32, [2]>([1, 1])];
            tensor<int32, []> input_207_groups_0 = const()[name = tensor<string, []>("input_207_groups_0"), val = tensor<int32, []>(1)];
            tensor<fp16, [64, 256, 3, 3]> model_model_22_cv2_2_0_conv_weight_to_fp16 = const()[name = tensor<string, []>("model_model_22_cv2_2_0_conv_weight_to_fp16"), val = tensor<fp16, [64, 256, 3, 3]>(BLOBFILE(path = tensor<string, []>("@model_path/weights/weight.bin"), offset = tensor<uint64, []>(4902720)))];
            tensor<fp16, [64]> model_model_22_cv2_2_0_conv_bias_to_fp16 = const()[name = tensor<string, []>("model_model_22_cv2_2_0_conv_bias_to_fp16"), val = tensor<fp16, [64]>(BLOBFILE(path = tensor<string, []>("@model_path/weights/weight.bin"), offset = tensor<uint64, []>(5197696)))];
            tensor<fp16, [1, 64, 10, 10]> input_207_cast_fp16 = conv(bias = model_model_22_cv2_2_0_conv_bias_to_fp16, dilations = input_207_dilations_0, groups = input_207_groups_0, pad = input_207_pad_0, pad_type = input_207_pad_type_0, strides = input_207_strides_0, weight = model_model_22_cv2_2_0_conv_weight_to_fp16, x = input_205_cast_fp16)[name = tensor<string, []>("input_207_cast_fp16")];
            tensor<fp16, [1, 64, 10, 10]> input_209_cast_fp16 = silu(x = input_207_cast_fp16)[name = tensor<string, []>("input_209_cast_fp16")];
            tensor<string, []> input_211_pad_type_0 = const()[name = tensor<string, []>("input_211_pad_type_0"), val = tensor<string, []>("custom")];
            tensor<int32, [4]> input_211_pad_0 = const()[name = tensor<string, []>("input_211_pad_0"), val = tensor<int32, [4]>([1, 1, 1, 1])];
            tensor<int32, [2]> input_211_strides_0 = const()[name = tensor<string, []>("input_211_strides_0"), val = tensor<int32, [2]>([1, 1])];
            tensor<int32, [2]> input_211_dilations_0 = const()[name = tensor<string, []>("input_211_dilations_0"), val = tensor<int32, [2]>([1, 1])];
            tensor<int32, []> input_211_groups_0 = const()[name = tensor<string, []>("input_211_groups_0"), val = tensor<int32, []>(1)];
            tensor<fp16, [64, 64, 3, 3]> model_model_22_cv2_2_1_conv_weight_to_fp16 = const()[name = tensor<string, []>("model_model_22_cv2_2_1_conv_weight_to_fp16"), val = tensor<fp16, [64, 64, 3, 3]>(BLOBFILE(path = tensor<string, []>("@model_path/weights/weight.bin"), offset = tensor<uint64, []>(5197888)))];
            tensor<fp16, [64]> model_model_22_cv2_2_1_conv_bias_to_fp16 = const()[name = tensor<string, []>("model_model_22_cv2_2_1_conv_bias_to_fp16"), val = tensor<fp16, [64]>(BLOBFILE(path = tensor<string, []>("@model_path/weights/weight.bin"), offset = tensor<uint64, []>(5271680)))];
            tensor<fp16, [1, 64, 10, 10]> input_211_cast_fp16 = conv(bias = model_model_22_cv2_2_1_conv_bias_to_fp16, dilations = input_211_dilations_0, groups = input_211_groups_0, pad = input_211_pad_0, pad_type = input_211_pad_type_0, strides = input_211_strides_0, weight = model_model_22_cv2_2_1_conv_weight_to_fp16, x = input_209_cast_fp16)[name = tensor<string, []>("input_211_cast_fp16")];
            tensor<fp16, [1, 64, 10, 10]> input_213_cast_fp16 = silu(x = input_211_cast_fp16)[name = tensor<string, []>("input_213_cast_fp16")];
            tensor<string, []> var_701_pad_type_0 = const()[name = tensor<string, []>("op_701_pad_type_0"), val = tensor<string, []>("valid")];
            tensor<int32, [2]> var_701_strides_0 = const()[name = tensor<string, []>("op_701_strides_0"), val = tensor<int32, [2]>([1, 1])];
            tensor<int32, [4]> var_701_pad_0 = const()[name = tensor<string, []>("op_701_pad_0"), val = tensor<int32, [4]>([0, 0, 0, 0])];
            tensor<int32, [2]> var_701_dilations_0 = const()[name = tensor<string, []>("op_701_dilations_0"), val = tensor<int32, [2]>([1, 1])];
            tensor<int32, []> var_701_groups_0 = const()[name = tensor<string, []>("op_701_groups_0"), val = tensor<int32, []>(1)];
            tensor<fp16, [64, 64, 1, 1]> model_model_22_cv2_2_2_weight_to_fp16 = const()[name = tensor<string, []>("model_model_22_cv2_2_2_weight_to_fp16"), val = tensor<fp16, [64, 64, 1, 1]>(BLOBFILE(path = tensor<string, []>("@model_path/weights/weight.bin"), offset = tensor<uint64, []>(5271872)))];
            tensor<fp16, [64]> model_model_22_cv2_2_2_bias_to_fp16 = const()[name = tensor<string, []>("model_model_22_cv2_2_2_bias_to_fp16"), val = tensor<fp16, [64]>(BLOBFILE(path = tensor<string, []>("@model_path/weights/weight.bin"), offset = tensor<uint64, []>(5280128)))];
            tensor<fp16, [1, 64, 10, 10]> var_701_cast_fp16 = conv(bias = model_model_22_cv2_2_2_bias_to_fp16, dilations = var_701_dilations_0, groups = var_701_groups_0, pad = var_701_pad_0, pad_type = var_701_pad_type_0, strides = var_701_strides_0, weight = model_model_22_cv2_2_2_weight_to_fp16, x = input_213_cast_fp16)[name = tensor<string, []>("op_701_cast_fp16")];
            tensor<int32, [3]> var_702 = const()[name = tensor<string, []>("op_702"), val = tensor<int32, [3]>([1, 64, -1])];
            tensor<fp16, [1, 64, 100]> var_703_cast_fp16 = reshape(shape = var_702, x = var_701_cast_fp16)[name = tensor<string, []>("op_703_cast_fp16")];
            tensor<bool, []> x_interleave_0 = const()[name = tensor<string, []>("x_interleave_0"), val = tensor<bool, []>(false)];
            tensor<fp16, [1, 64, 2100]> x_cast_fp16 = concat(axis = var_3, interleave = x_interleave_0, values = (var_643_cast_fp16, var_673_cast_fp16, var_703_cast_fp16))[name = tensor<string, []>("x_cast_fp16")];
            tensor<string, []> input_215_pad_type_0 = const()[name = tensor<string, []>("input_215_pad_type_0"), val = tensor<string, []>("custom")];
            tensor<int32, [4]> input_215_pad_0 = const()[name = tensor<string, []>("input_215_pad_0"), val = tensor<int32, [4]>([1, 1, 1, 1])];
            tensor<int32, [2]> input_215_strides_0 = const()[name = tensor<string, []>("input_215_strides_0"), val = tensor<int32, [2]>([1, 1])];
            tensor<int32, [2]> input_215_dilations_0 = const()[name = tensor<string, []>("input_215_dilations_0"), val = tensor<int32, [2]>([1, 1])];
            tensor<int32, []> input_215_groups_0 = const()[name = tensor<string, []>("input_215_groups_0"), val = tensor<int32, []>(1)];
            tensor<fp16, [80, 64, 3, 3]> model_model_22_cv3_0_0_conv_weight_to_fp16 = const()[name = tensor<string, []>("model_model_22_cv3_0_0_conv_weight_to_fp16"), val = tensor<fp16, [80, 64, 3, 3]>(BLOBFILE(path = tensor<string, []>("@model_path/weights/weight.bin"), offset = tensor<uint64, []>(5280320)))];
            tensor<fp16, [80]> model_model_22_cv3_0_0_conv_bias_to_fp16 = const()[name = tensor<string, []>("model_model_22_cv3_0_0_conv_bias_to_fp16"), val = tensor<fp16, [80]>(BLOBFILE(path = tensor<string, []>("@model_path/weights/weight.bin"), offset = tensor<uint64, []>(5372544)))];
            tensor<fp16, [1, 80, 40, 40]> input_215_cast_fp16 = conv(bias = model_model_22_cv3_0_0_conv_bias_to_fp16, dilations = input_215_dilations_0, groups = input_215_groups_0, pad = input_215_pad_0, pad_type = input_215_pad_type_0, strides = input_215_strides_0, weight = model_model_22_cv3_0_0_conv_weight_to_fp16, x = input_149_cast_fp16)[name = tensor<string, []>("input_215_cast_fp16")];
            tensor<fp16, [1, 80, 40, 40]> input_217_cast_fp16 = silu(x = input_215_cast_fp16)[name = tensor<string, []>("input_217_cast_fp16")];
            tensor<string, []> input_219_pad_type_0 = const()[name = tensor<string, []>("input_219_pad_type_0"), val = tensor<string, []>("custom")];
            tensor<int32, [4]> input_219_pad_0 = const()[name = tensor<string, []>("input_219_pad_0"), val = tensor<int32, [4]>([1, 1, 1, 1])];
            tensor<int32, [2]> input_219_strides_0 = const()[name = tensor<string, []>("input_219_strides_0"), val = tensor<int32, [2]>([1, 1])];
            tensor<int32, [2]> input_219_dilations_0 = const()[name = tensor<string, []>("input_219_dilations_0"), val = tensor<int32, [2]>([1, 1])];
            tensor<int32, []> input_219_groups_0 = const()[name = tensor<string, []>("input_219_groups_0"), val = tensor<int32, []>(1)];
            tensor<fp16, [80, 80, 3, 3]> model_model_22_cv3_0_1_conv_weight_to_fp16 = const()[name = tensor<string, []>("model_model_22_cv3_0_1_conv_weight_to_fp16"), val = tensor<fp16, [80, 80, 3, 3]>(BLOBFILE(path = tensor<string, []>("@model_path/weights/weight.bin"), offset = tensor<uint64, []>(5372800)))];
            tensor<fp16, [80]> model_model_22_cv3_0_1_conv_bias_to_fp16 = const()[name = tensor<string, []>("model_model_22_cv3_0_1_conv_bias_to_fp16"), val = tensor<fp16, [80]>(BLOBFILE(path = tensor<string, []>("@model_path/weights/weight.bin"), offset = tensor<uint64, []>(5488064)))];
            tensor<fp16, [1, 80, 40, 40]> input_219_cast_fp16 = conv(bias = model_model_22_cv3_0_1_conv_bias_to_fp16, dilations = input_219_dilations_0, groups = input_219_groups_0, pad = input_219_pad_0, pad_type = input_219_pad_type_0, strides = input_219_strides_0, weight = model_model_22_cv3_0_1_conv_weight_to_fp16, x = input_217_cast_fp16)[name = tensor<string, []>("input_219_cast_fp16")];
            tensor<fp16, [1, 80, 40, 40]> input_221_cast_fp16 = silu(x = input_219_cast_fp16)[name = tensor<string, []>("input_221_cast_fp16")];
            tensor<string, []> var_733_pad_type_0 = const()[name = tensor<string, []>("op_733_pad_type_0"), val = tensor<string, []>("valid")];
            tensor<int32, [2]> var_733_strides_0 = const()[name = tensor<string, []>("op_733_strides_0"), val = tensor<int32, [2]>([1, 1])];
            tensor<int32, [4]> var_733_pad_0 = const()[name = tensor<string, []>("op_733_pad_0"), val = tensor<int32, [4]>([0, 0, 0, 0])];
            tensor<int32, [2]> var_733_dilations_0 = const()[name = tensor<string, []>("op_733_dilations_0"), val = tensor<int32, [2]>([1, 1])];
            tensor<int32, []> var_733_groups_0 = const()[name = tensor<string, []>("op_733_groups_0"), val = tensor<int32, []>(1)];
            tensor<fp16, [80, 80, 1, 1]> model_model_22_cv3_0_2_weight_to_fp16 = const()[name = tensor<string, []>("model_model_22_cv3_0_2_weight_to_fp16"), val = tensor<fp16, [80, 80, 1, 1]>(BLOBFILE(path = tensor<string, []>("@model_path/weights/weight.bin"), offset = tensor<uint64, []>(5488320)))];
            tensor<fp16, [80]> model_model_22_cv3_0_2_bias_to_fp16 = const()[name = tensor<string, []>("model_model_22_cv3_0_2_bias_to_fp16"), val = tensor<fp16, [80]>(BLOBFILE(path = tensor<string, []>("@model_path/weights/weight.bin"), offset = tensor<uint64, []>(5501184)))];
            tensor<fp16, [1, 80, 40, 40]> var_733_cast_fp16 = conv(bias = model_model_22_cv3_0_2_bias_to_fp16, dilations = var_733_dilations_0, groups = var_733_groups_0, pad = var_733_pad_0, pad_type = var_733_pad_type_0, strides = var_733_strides_0, weight = model_model_22_cv3_0_2_weight_to_fp16, x = input_221_cast_fp16)[name = tensor<string, []>("op_733_cast_fp16")];
            tensor<int32, [3]> var_734 = const()[name = tensor<string, []>("op_734"), val = tensor<int32, [3]>([1, 80, -1])];
            tensor<fp16, [1, 80, 1600]> var_735_cast_fp16 = reshape(shape = var_734, x = var_733_cast_fp16)[name = tensor<string, []>("op_735_cast_fp16")];
            tensor<string, []> input_223_pad_type_0 = const()[name = tensor<string, []>("input_223_pad_type_0"), val = tensor<string, []>("custom")];
            tensor<int32, [4]> input_223_pad_0 = const()[name = tensor<string, []>("input_223_pad_0"), val = tensor<int32, [4]>([1, 1, 1, 1])];
            tensor<int32, [2]> input_223_strides_0 = const()[name = tensor<string, []>("input_223_strides_0"), val = tensor<int32, [2]>([1, 1])];
            tensor<int32, [2]> input_223_dilations_0 = const()[name = tensor<string, []>("input_223_dilations_0"), val = tensor<int32, [2]>([1, 1])];
            tensor<int32, []> input_223_groups_0 = const()[name = tensor<string, []>("input_223_groups_0"), val = tensor<int32, []>(1)];
            tensor<fp16, [80, 128, 3, 3]> model_model_22_cv3_1_0_conv_weight_to_fp16 = const()[name = tensor<string, []>("model_model_22_cv3_1_0_conv_weight_to_fp16"), val = tensor<fp16, [80, 128, 3, 3]>(BLOBFILE(path = tensor<string, []>("@model_path/weights/weight.bin"), offset = tensor<uint64, []>(5501440)))];
            tensor<fp16, [80]> model_model_22_cv3_1_0_conv_bias_to_fp16 = const()[name = tensor<string, []>("model_model_22_cv3_1_0_conv_bias_to_fp16"), val = tensor<fp16, [80]>(BLOBFILE(path = tensor<string, []>("@model_path/weights/weight.bin"), offset = tensor<uint64, []>(5685824)))];
            tensor<fp16, [1, 80, 20, 20]> input_223_cast_fp16 = conv(bias = model_model_22_cv3_1_0_conv_bias_to_fp16, dilations = input_223_dilations_0, groups = input_223_groups_0, pad = input_223_pad_0, pad_type = input_223_pad_type_0, strides = input_223_strides_0, weight = model_model_22_cv3_1_0_conv_weight_to_fp16, x = input_169_cast_fp16)[name = tensor<string, []>("input_223_cast_fp16")];
            tensor<fp16, [1, 80, 20, 20]> input_225_cast_fp16 = silu(x = input_223_cast_fp16)[name = tensor<string, []>("input_225_cast_fp16")];
            tensor<string, []> input_227_pad_type_0 = const()[name = tensor<string, []>("input_227_pad_type_0"), val = tensor<string, []>("custom")];
            tensor<int32, [4]> input_227_pad_0 = const()[name = tensor<string, []>("input_227_pad_0"), val = tensor<int32, [4]>([1, 1, 1, 1])];
            tensor<int32, [2]> input_227_strides_0 = const()[name = tensor<string, []>("input_227_strides_0"), val = tensor<int32, [2]>([1, 1])];
            tensor<int32, [2]> input_227_dilations_0 = const()[name = tensor<string, []>("input_227_dilations_0"), val = tensor<int32, [2]>([1, 1])];
            tensor<int32, []> input_227_groups_0 = const()[name = tensor<string, []>("input_227_groups_0"), val = tensor<int32, []>(1)];
            tensor<fp16, [80, 80, 3, 3]> model_model_22_cv3_1_1_conv_weight_to_fp16 = const()[name = tensor<string, []>("model_model_22_cv3_1_1_conv_weight_to_fp16"), val = tensor<fp16, [80, 80, 3, 3]>(BLOBFILE(path = tensor<string, []>("@model_path/weights/weight.bin"), offset = tensor<uint64, []>(5686080)))];
            tensor<fp16, [80]> model_model_22_cv3_1_1_conv_bias_to_fp16 = const()[name = tensor<string, []>("model_model_22_cv3_1_1_conv_bias_to_fp16"), val = tensor<fp16, [80]>(BLOBFILE(path = tensor<string, []>("@model_path/weights/weight.bin"), offset = tensor<uint64, []>(5801344)))];
            tensor<fp16, [1, 80, 20, 20]> input_227_cast_fp16 = conv(bias = model_model_22_cv3_1_1_conv_bias_to_fp16, dilations = input_227_dilations_0, groups = input_227_groups_0, pad = input_227_pad_0, pad_type = input_227_pad_type_0, strides = input_227_strides_0, weight = model_model_22_cv3_1_1_conv_weight_to_fp16, x = input_225_cast_fp16)[name = tensor<string, []>("input_227_cast_fp16")];
            tensor<fp16, [1, 80, 20, 20]> input_229_cast_fp16 = silu(x = input_227_cast_fp16)[name = tensor<string, []>("input_229_cast_fp16")];
            tensor<string, []> var_763_pad_type_0 = const()[name = tensor<string, []>("op_763_pad_type_0"), val = tensor<string, []>("valid")];
            tensor<int32, [2]> var_763_strides_0 = const()[name = tensor<string, []>("op_763_strides_0"), val = tensor<int32, [2]>([1, 1])];
            tensor<int32, [4]> var_763_pad_0 = const()[name = tensor<string, []>("op_763_pad_0"), val = tensor<int32, [4]>([0, 0, 0, 0])];
            tensor<int32, [2]> var_763_dilations_0 = const()[name = tensor<string, []>("op_763_dilations_0"), val = tensor<int32, [2]>([1, 1])];
            tensor<int32, []> var_763_groups_0 = const()[name = tensor<string, []>("op_763_groups_0"), val = tensor<int32, []>(1)];
            tensor<fp16, [80, 80, 1, 1]> model_model_22_cv3_1_2_weight_to_fp16 = const()[name = tensor<string, []>("model_model_22_cv3_1_2_weight_to_fp16"), val = tensor<fp16, [80, 80, 1, 1]>(BLOBFILE(path = tensor<string, []>("@model_path/weights/weight.bin"), offset = tensor<uint64, []>(5801600)))];
            tensor<fp16, [80]> model_model_22_cv3_1_2_bias_to_fp16 = const()[name = tensor<string, []>("model_model_22_cv3_1_2_bias_to_fp16"), val = tensor<fp16, [80]>(BLOBFILE(path = tensor<string, []>("@model_path/weights/weight.bin"), offset = tensor<uint64, []>(5814464)))];
            tensor<fp16, [1, 80, 20, 20]> var_763_cast_fp16 = conv(bias = model_model_22_cv3_1_2_bias_to_fp16, dilations = var_763_dilations_0, groups = var_763_groups_0, pad = var_763_pad_0, pad_type = var_763_pad_type_0, strides = var_763_strides_0, weight = model_model_22_cv3_1_2_weight_to_fp16, x = input_229_cast_fp16)[name = tensor<string, []>("op_763_cast_fp16")];
            tensor<int32, [3]> var_764 = const()[name = tensor<string, []>("op_764"), val = tensor<int32, [3]>([1, 80, -1])];
            tensor<fp16, [1, 80, 400]> var_765_cast_fp16 = reshape(shape = var_764, x = var_763_cast_fp16)[name = tensor<string, []>("op_765_cast_fp16")];
            tensor<string, []> input_231_pad_type_0 = const()[name = tensor<string, []>("input_231_pad_type_0"), val = tensor<string, []>("custom")];
            tensor<int32, [4]> input_231_pad_0 = const()[name = tensor<string, []>("input_231_pad_0"), val = tensor<int32, [4]>([1, 1, 1, 1])];
            tensor<int32, [2]> input_231_strides_0 = const()[name = tensor<string, []>("input_231_strides_0"), val = tensor<int32, [2]>([1, 1])];
            tensor<int32, [2]> input_231_dilations_0 = const()[name = tensor<string, []>("input_231_dilations_0"), val = tensor<int32, [2]>([1, 1])];
            tensor<int32, []> input_231_groups_0 = const()[name = tensor<string, []>("input_231_groups_0"), val = tensor<int32, []>(1)];
            tensor<fp16, [80, 256, 3, 3]> model_model_22_cv3_2_0_conv_weight_to_fp16 = const()[name = tensor<string, []>("model_model_22_cv3_2_0_conv_weight_to_fp16"), val = tensor<fp16, [80, 256, 3, 3]>(BLOBFILE(path = tensor<string, []>("@model_path/weights/weight.bin"), offset = tensor<uint64, []>(5814720)))];
            tensor<fp16, [80]> model_model_22_cv3_2_0_conv_bias_to_fp16 = const()[name = tensor<string, []>("model_model_22_cv3_2_0_conv_bias_to_fp16"), val = tensor<fp16, [80]>(BLOBFILE(path = tensor<string, []>("@model_path/weights/weight.bin"), offset = tensor<uint64, []>(6183424)))];
            tensor<fp16, [1, 80, 10, 10]> input_231_cast_fp16 = conv(bias = model_model_22_cv3_2_0_conv_bias_to_fp16, dilations = input_231_dilations_0, groups = input_231_groups_0, pad = input_231_pad_0, pad_type = input_231_pad_type_0, strides = input_231_strides_0, weight = model_model_22_cv3_2_0_conv_weight_to_fp16, x = input_205_cast_fp16)[name = tensor<string, []>("input_231_cast_fp16")];
            tensor<fp16, [1, 80, 10, 10]> input_233_cast_fp16 = silu(x = input_231_cast_fp16)[name = tensor<string, []>("input_233_cast_fp16")];
            tensor<string, []> input_235_pad_type_0 = const()[name = tensor<string, []>("input_235_pad_type_0"), val = tensor<string, []>("custom")];
            tensor<int32, [4]> input_235_pad_0 = const()[name = tensor<string, []>("input_235_pad_0"), val = tensor<int32, [4]>([1, 1, 1, 1])];
            tensor<int32, [2]> input_235_strides_0 = const()[name = tensor<string, []>("input_235_strides_0"), val = tensor<int32, [2]>([1, 1])];
            tensor<int32, [2]> input_235_dilations_0 = const()[name = tensor<string, []>("input_235_dilations_0"), val = tensor<int32, [2]>([1, 1])];
            tensor<int32, []> input_235_groups_0 = const()[name = tensor<string, []>("input_235_groups_0"), val = tensor<int32, []>(1)];
            tensor<fp16, [80, 80, 3, 3]> model_model_22_cv3_2_1_conv_weight_to_fp16 = const()[name = tensor<string, []>("model_model_22_cv3_2_1_conv_weight_to_fp16"), val = tensor<fp16, [80, 80, 3, 3]>(BLOBFILE(path = tensor<string, []>("@model_path/weights/weight.bin"), offset = tensor<uint64, []>(6183680)))];
            tensor<fp16, [80]> model_model_22_cv3_2_1_conv_bias_to_fp16 = const()[name = tensor<string, []>("model_model_22_cv3_2_1_conv_bias_to_fp16"), val = tensor<fp16, [80]>(BLOBFILE(path = tensor<string, []>("@model_path/weights/weight.bin"), offset = tensor<uint64, []>(6298944)))];
            tensor<fp16, [1, 80, 10, 10]> input_235_cast_fp16 = conv(bias = model_model_22_cv3_2_1_conv_bias_to_fp16, dilations = input_235_dilations_0, groups = input_235_groups_0, pad = input_235_pad_0, pad_type = input_235_pad_type_0, strides = input_235_strides_0, weight = model_model_22_cv3_2_1_conv_weight_to_fp16, x = input_233_cast_fp16)[name = tensor<string, []>("input_235_cast_fp16")];
            tensor<fp16, [1, 80, 10, 10]> input_237_cast_fp16 = silu(x = input_235_cast_fp16)[name = tensor<string, []>("input_237_cast_fp16")];
            tensor<string, []> var_793_pad_type_0 = const()[name = tensor<string, []>("op_793_pad_type_0"), val = tensor<string, []>("valid")];
            tensor<int32, [2]> var_793_strides_0 = const()[name = tensor<string, []>("op_793_strides_0"), val = tensor<int32, [2]>([1, 1])];
            tensor<int32, [4]> var_793_pad_0 = const()[name = tensor<string, []>("op_793_pad_0"), val = tensor<int32, [4]>([0, 0, 0, 0])];
            tensor<int32, [2]> var_793_dilations_0 = const()[name = tensor<string, []>("op_793_dilations_0"), val = tensor<int32, [2]>([1, 1])];
            tensor<int32, []> var_793_groups_0 = const()[name = tensor<string, []>("op_793_groups_0"), val = tensor<int32, []>(1)];
            tensor<fp16, [80, 80, 1, 1]> model_model_22_cv3_2_2_weight_to_fp16 = const()[name = tensor<string, []>("model_model_22_cv3_2_2_weight_to_fp16"), val = tensor<fp16, [80, 80, 1, 1]>(BLOBFILE(path = tensor<string, []>("@model_path/weights/weight.bin"), offset = tensor<uint64, []>(6299200)))];
            tensor<fp16, [80]> model_model_22_cv3_2_2_bias_to_fp16 = const()[name = tensor<string, []>("model_model_22_cv3_2_2_bias_to_fp16"), val = tensor<fp16, [80]>(BLOBFILE(path = tensor<string, []>("@model_path/weights/weight.bin"), offset = tensor<uint64, []>(6312064)))];
            tensor<fp16, [1, 80, 10, 10]> var_793_cast_fp16 = conv(bias = model_model_22_cv3_2_2_bias_to_fp16, dilations = var_793_dilations_0, groups = var_793_groups_0, pad = var_793_pad_0, pad_type = var_793_pad_type_0, strides = var_793_strides_0, weight = model_model_22_cv3_2_2_weight_to_fp16, x = input_237_cast_fp16)[name = tensor<string, []>("op_793_cast_fp16")];
            tensor<int32, [3]> var_794 = const()[name = tensor<string, []>("op_794"), val = tensor<int32, [3]>([1, 80, -1])];
            tensor<fp16, [1, 80, 100]> var_795_cast_fp16 = reshape(shape = var_794, x = var_793_cast_fp16)[name = tensor<string, []>("op_795_cast_fp16")];
            tensor<bool, []> var_797_interleave_0 = const()[name = tensor<string, []>("op_797_interleave_0"), val = tensor<bool, []>(false)];
            tensor<fp16, [1, 80, 2100]> var_797_cast_fp16 = concat(axis = var_3, interleave = var_797_interleave_0, values = (var_735_cast_fp16, var_765_cast_fp16, var_795_cast_fp16))[name = tensor<string, []>("op_797_cast_fp16")];
            tensor<int32, [4]> var_801 = const()[name = tensor<string, []>("op_801"), val = tensor<int32, [4]>([1, 4, 16, 2100])];
            tensor<fp16, [1, 4, 16, 2100]> var_802_cast_fp16 = reshape(shape = var_801, x = x_cast_fp16)[name = tensor<string, []>("op_802_cast_fp16")];
            tensor<int32, [4]> var_803_perm_0 = const()[name = tensor<string, []>("op_803_perm_0"), val = tensor<int32, [4]>([0, 2, 1, 3])];
            tensor<fp16, [1, 16, 4, 2100]> var_803_cast_fp16 = transpose(perm = var_803_perm_0, x = var_802_cast_fp16)[name = tensor<string, []>("transpose_1")];
            tensor<fp16, [1, 16, 4, 2100]> input_cast_fp16 = softmax(axis = var_18, x = var_803_cast_fp16)[name = tensor<string, []>("input_cast_fp16")];
            tensor<string, []> var_810_pad_type_0 = const()[name = tensor<string, []>("op_810_pad_type_0"), val = tensor<string, []>("valid")];
            tensor<int32, [2]> var_810_strides_0 = const()[name = tensor<string, []>("op_810_strides_0"), val = tensor<int32, [2]>([1, 1])];
            tensor<int32, [4]> var_810_pad_0 = const()[name = tensor<string, []>("op_810_pad_0"), val = tensor<int32, [4]>([0, 0, 0, 0])];
            tensor<int32, [2]> var_810_dilations_0 = const()[name = tensor<string, []>("op_810_dilations_0"), val = tensor<int32, [2]>([1, 1])];
            tensor<int32, []> var_810_groups_0 = const()[name = tensor<string, []>("op_810_groups_0"), val = tensor<int32, []>(1)];
            tensor<fp16, [1, 16, 1, 1]> model_model_22_dfl_conv_weight_to_fp16 = const()[name = tensor<string, []>("model_model_22_dfl_conv_weight_to_fp16"), val = tensor<fp16, [1, 16, 1, 1]>(BLOBFILE(path = tensor<string, []>("@model_path/weights/weight.bin"), offset = tensor<uint64, []>(6312320)))];
            tensor<fp16, [1, 1, 4, 2100]> var_810_cast_fp16 = conv(dilations = var_810_dilations_0, groups = var_810_groups_0, pad = var_810_pad_0, pad_type = var_810_pad_type_0, strides = var_810_strides_0, weight = model_model_22_dfl_conv_weight_to_fp16, x = input_cast_fp16)[name = tensor<string, []>("op_810_cast_fp16")];
            tensor<int32, [3]> var_811 = const()[name = tensor<string, []>("op_811"), val = tensor<int32, [3]>([1, 4, 2100])];
            tensor<fp16, [1, 4, 2100]> distance_cast_fp16 = reshape(shape = var_811, x = var_810_cast_fp16)[name = tensor<string, []>("distance_cast_fp16")];
            tensor<int32, [2]> var_814_split_sizes_0 = const()[name = tensor<string, []>("op_814_split_sizes_0"), val = tensor<int32, [2]>([2, 2])];
            tensor<int32, []> var_814_axis_0 = const()[name = tensor<string, []>("op_814_axis_0"), val = tensor<int32, []>(1)];
            tensor<fp16, [1, 2, 2100]> var_814_cast_fp16_0, tensor<fp16, [1, 2, 2100]> var_814_cast_fp16_1 = split(axis = var_814_axis_0, split_sizes = var_814_split_sizes_0, x = distance_cast_fp16)[name = tensor<string, []>("op_814_cast_fp16")];
            tensor<fp16, [1, 2, 2100]> anchor_points_to_fp16 = const()[name = tensor<string, []>("anchor_points_to_fp16"), val = tensor<fp16, [1, 2, 2100]>(BLOBFILE(path = tensor<string, []>("@model_path/weights/weight.bin"), offset = tensor<uint64, []>(6312448)))];
            tensor<fp16, [1, 2, 2100]> x1y1_cast_fp16 = sub(x = anchor_points_to_fp16, y = var_814_cast_fp16_0)[name = tensor<string, []>("x1y1_cast_fp16")];
            tensor<fp16, [1, 2, 2100]> x2y2_cast_fp16 = add(x = anchor_points_to_fp16, y = var_814_cast_fp16_1)[name = tensor<string, []>("x2y2_cast_fp16")];
            tensor<fp16, [1, 2, 2100]> var_818_cast_fp16 = add(x = x1y1_cast_fp16, y = x2y2_cast_fp16)[name = tensor<string, []>("op_818_cast_fp16")];
            tensor<fp16, []> _inversed_c_xy_y_0_to_fp16 = const()[name = tensor<string, []>("_inversed_c_xy_y_0_to_fp16"), val = tensor<fp16, []>(0x1p-1)];
            tensor<fp16, [1, 2, 2100]> _inversed_c_xy_cast_fp16 = mul(x = var_818_cast_fp16, y = _inversed_c_xy_y_0_to_fp16)[name = tensor<string, []>("_inversed_c_xy_cast_fp16")];
            tensor<fp16, [1, 2, 2100]> wh_cast_fp16 = sub(x = x2y2_cast_fp16, y = x1y1_cast_fp16)[name = tensor<string, []>("wh_cast_fp16")];
            tensor<bool, []> var_823_interleave_0 = const()[name = tensor<string, []>("op_823_interleave_0"), val = tensor<bool, []>(false)];
            tensor<fp16, [1, 4, 2100]> var_823_cast_fp16 = concat(axis = var_18, interleave = var_823_interleave_0, values = (_inversed_c_xy_cast_fp16, wh_cast_fp16))[name = tensor<string, []>("op_823_cast_fp16")];
            tensor<fp16, [1, 2100]> var_7_to_fp16 = const()[name = tensor<string, []>("op_7_to_fp16"), val = tensor<fp16, [1, 2100]>(BLOBFILE(path = tensor<string, []>("@model_path/weights/weight.bin"), offset = tensor<uint64, []>(6320960)))];
            tensor<fp16, [1, 4, 2100]> dbox_cast_fp16 = mul(x = var_823_cast_fp16, y = var_7_to_fp16)[name = tensor<string, []>("dbox_cast_fp16")];
            tensor<fp16, [1, 80, 2100]> var_825_cast_fp16 = sigmoid(x = var_797_cast_fp16)[name = tensor<string, []>("op_825_cast_fp16")];
            tensor<bool, []> var_827_interleave_0 = const()[name = tensor<string, []>("op_827_interleave_0"), val = tensor<bool, []>(false)];
            tensor<fp16, [1, 84, 2100]> var_827_cast_fp16 = concat(axis = var_18, interleave = var_827_interleave_0, values = (dbox_cast_fp16, var_825_cast_fp16))[name = tensor<string, []>("op_827_cast_fp16")];
            tensor<int32, [3]> var_830_begin_0 = const()[name = tensor<string, []>("op_830_begin_0"), val = tensor<int32, [3]>([0, 0, 0])];
            tensor<int32, [3]> var_830_end_0 = const()[name = tensor<string, []>("op_830_end_0"), val = tensor<int32, [3]>([1, 84, 2100])];
            tensor<bool, [3]> var_830_end_mask_0 = const()[name = tensor<string, []>("op_830_end_mask_0"), val = tensor<bool, [3]>([false, true, true])];
            tensor<bool, [3]> var_830_squeeze_mask_0 = const()[name = tensor<string, []>("op_830_squeeze_mask_0"), val = tensor<bool, [3]>([true, false, false])];
            tensor<fp16, [84, 2100]> var_830_cast_fp16 = slice_by_index(begin = var_830_begin_0, end = var_830_end_0, end_mask = var_830_end_mask_0, squeeze_mask = var_830_squeeze_mask_0, x = var_827_cast_fp16)[name = tensor<string, []>("op_830_cast_fp16")];
            tensor<int32, [2]> var_833_perm_0 = const()[name = tensor<string, []>("op_833_perm_0"), val = tensor<int32, [2]>([1, 0])];
            tensor<int32, [2]> var_836 = const()[name = tensor<string, []>("op_836"), val = tensor<int32, [2]>([4, 80])];
            tensor<int32, []> var_838_axis_0 = const()[name = tensor<string, []>("op_838_axis_0"), val = tensor<int32, []>(1)];
            tensor<fp16, [2100, 84]> var_833_cast_fp16 = transpose(perm = var_833_perm_0, x = var_830_cast_fp16)[name = tensor<string, []>("transpose_0")];
            tensor<fp16, [2100, 4]> var_838_cast_fp16_0, tensor<fp16, [2100, 80]> var_838_cast_fp16_1 = split(axis = var_838_axis_0, split_sizes = var_836, x = var_833_cast_fp16)[name = tensor<string, []>("op_838_cast_fp16")];
            tensor<string, []> var_838_cast_fp16_1_to_fp32_dtype_0 = const()[name = tensor<string, []>("op_838_cast_fp16_1_to_fp32_dtype_0"), val = tensor<string, []>("fp32")];
            tensor<fp16, []> var_841_to_fp16 = const()[name = tensor<string, []>("op_841_to_fp16"), val = tensor<fp16, []>(0x1.998p-9)];
            tensor<fp16, [2100, 4]> var_842_cast_fp16 = mul(x = var_838_cast_fp16_0, y = var_841_to_fp16)[name = tensor<string, []>("op_842_cast_fp16")];
            tensor<string, []> var_842_cast_fp16_to_fp32_dtype_0 = const()[name = tensor<string, []>("op_842_cast_fp16_to_fp32_dtype_0"), val = tensor<string, []>("fp32")];
            tensor<fp32, [2100, 4]> var_842 = cast(dtype = var_842_cast_fp16_to_fp32_dtype_0, x = var_842_cast_fp16)[name = tensor<string, []>("cast_10")];
            tensor<fp32, [2100, 80]> var_838_1 = cast(dtype = var_838_cast_fp16_1_to_fp32_dtype_0, x = var_838_cast_fp16_1)[name = tensor<string, []>("cast_11")];
        } -> (var_838_1, var_842);
}